{"format": "graph-model", "generatedBy": "2.20.0", "convertedBy": "TensorFlow.js Converter v4.22.0", "signature": {"inputs": {"args_0": {"name": "args_0:0", "dtype": "DT_FLOAT", "tensorShape": {"dim": [{"size": "-1"}, {"size": "16"}, {"size": "224"}, {"size": "224"}, {"size": "3"}]}}}, "outputs": {"output_0": {"name": "Identity:0", "dtype": "DT_FLOAT", "tensorShape": {"dim": [{"size": "-1"}, {"size": "8"}]}}}}, "modelTopology": {"node": [{"name": "StatefulPartitionedCall/dfew_classifier_1/resnet50_1/conv5_block3_3_bn_1/batchnorm/sub", "op": "Const", "attr": {"value": {"tensor": {"dtype": "DT_FLOAT", "tensorShape": {"dim": [{"size": "1"}, {"size": "1"}, {"size": "1"}, {"size": "2048"}]}}}, "dtype": {"type": "DT_FLOAT"}}}, {"name": "StatefulPartitionedCall/dfew_classifier_1/resnet50_1/conv5_block2_3_bn_1/batchnorm/sub", "op": "Const", "attr": {"value": {"tensor": {"dtype": "DT_FLOAT", "tensorShape": {"dim": [{"size": "1"}, {"size": "1"}, {"size": "1"}, {"size": "2048"}]}}}, "dtype": {"type": "DT_FLOAT"}}}, {"name": "StatefulPartitionedCall/dfew_classifier_1/resnet50_1/conv5_block1_add_1/ArithmeticOptimizer/AddOpsRewrite_Leaf_0_Add", "op": "Const", "attr": {"value": {"tensor": {"dtype": "DT_FLOAT", "tensorShape": {"dim": [{"size": "1"}, {"size": "1"}, {"size": "1"}, {"size": "2048"}]}}}, "dtype": {"type": "DT_FLOAT"}}}, {"name": "StatefulPartitionedCall/dfew_classifier_1/resnet50_1/conv5_block1_0_conv_1/convolution/ReadVariableOp", "op": "Const", "attr": {"value": {"tensor": {"dtype": "DT_FLOAT", "tensorShape": {"dim": [{"size": "1"}, {"size": "1"}, {"size": "1024"}, {"size": "2048"}]}}}, "dtype": {"type": "DT_FLOAT"}}}, {"name": "StatefulPartitionedCall/dfew_classifier_1/resnet50_1/conv5_block1_0_conv_1/Squeeze", "op": "Const", "attr": {"value": {"tensor": {"dtype": "DT_FLOAT", "tensorShape": {"dim": [{"size": "2048"}]}}}, "dtype": {"type": "DT_FLOAT"}}}, {"name": "StatefulPartitionedCall/dfew_classifier_1/resnet50_1/conv5_block1_0_bn_1/batchnorm/mul", "op": "Const", "attr": {"value": {"tensor": {"dtype": "DT_FLOAT", "tensorShape": {"dim": [{"size": "1"}, {"size": "1"}, {"size": "1"}, {"size": "2048"}]}}}, "dtype": {"type": "DT_FLOAT"}}}, {"name": "StatefulPartitionedCall/dfew_classifier_1/resnet50_1/conv4_block6_3_bn_1/batchnorm/sub", "op": "Const", "attr": {"value": {"tensor": {"dtype": "DT_FLOAT", "tensorShape": {"dim": [{"size": "1"}, {"size": "1"}, {"size": "1"}, {"size": "1024"}]}}}, "dtype": {"type": "DT_FLOAT"}}}, {"name": "StatefulPartitionedCall/dfew_classifier_1/resnet50_1/conv4_block5_3_bn_1/batchnorm/sub", "op": "Const", "attr": {"value": {"tensor": {"dtype": "DT_FLOAT", "tensorShape": {"dim": [{"size": "1"}, {"size": "1"}, {"size": "1"}, {"size": "1024"}]}}}, "dtype": {"type": "DT_FLOAT"}}}, {"name": "StatefulPartitionedCall/dfew_classifier_1/resnet50_1/conv4_block4_3_bn_1/batchnorm/sub", "op": "Const", "attr": {"value": {"tensor": {"dtype": "DT_FLOAT", "tensorShape": {"dim": [{"size": "1"}, {"size": "1"}, {"size": "1"}, {"size": "1024"}]}}}, "dtype": {"type": "DT_FLOAT"}}}, {"name": "StatefulPartitionedCall/dfew_classifier_1/resnet50_1/conv4_block3_3_bn_1/batchnorm/sub", "op": "Const", "attr": {"value": {"tensor": {"dtype": "DT_FLOAT", "tensorShape": {"dim": [{"size": "1"}, {"size": "1"}, {"size": "1"}, {"size": "1024"}]}}}, "dtype": {"type": "DT_FLOAT"}}}, {"name": "StatefulPartitionedCall/dfew_classifier_1/resnet50_1/conv4_block2_3_bn_1/batchnorm/sub", "op": "Const", "attr": {"value": {"tensor": {"dtype": "DT_FLOAT", "tensorShape": {"dim": [{"size": "1"}, {"size": "1"}, {"size": "1"}, {"size": "1024"}]}}}, "dtype": {"type": "DT_FLOAT"}}}, {"name": "StatefulPartitionedCall/dfew_classifier_1/resnet50_1/conv4_block1_add_1/ArithmeticOptimizer/AddOpsRewrite_Leaf_0_Add", "op": "Const", "attr": {"value": {"tensor": {"dtype": "DT_FLOAT", "tensorShape": {"dim": [{"size": "1"}, {"size": "1"}, {"size": "1"}, {"size": "1024"}]}}}, "dtype": {"type": "DT_FLOAT"}}}, {"name": "StatefulPartitionedCall/dfew_classifier_1/resnet50_1/conv4_block1_0_conv_1/convolution/merged_input", "op": "Const", "attr": {"value": {"tensor": {"dtype": "DT_FLOAT", "tensorShape": {"dim": [{"size": "1"}, {"size": "1"}, {"size": "512"}, {"size": "1024"}]}}}, "dtype": {"type": "DT_FLOAT"}}}, {"name": "StatefulPartitionedCall/dfew_classifier_1/resnet50_1/conv3_block4_3_bn_1/batchnorm/sub", "op": "Const", "attr": {"value": {"tensor": {"dtype": "DT_FLOAT", "tensorShape": {"dim": [{"size": "1"}, {"size": "1"}, {"size": "1"}, {"size": "512"}]}}}, "dtype": {"type": "DT_FLOAT"}}}, {"name": "StatefulPartitionedCall/dfew_classifier_1/resnet50_1/conv3_block3_3_bn_1/batchnorm/sub", "op": "Const", "attr": {"value": {"tensor": {"dtype": "DT_FLOAT", "tensorShape": {"dim": [{"size": "1"}, {"size": "1"}, {"size": "1"}, {"size": "512"}]}}}, "dtype": {"type": "DT_FLOAT"}}}, {"name": "StatefulPartitionedCall/dfew_classifier_1/resnet50_1/conv3_block2_3_bn_1/batchnorm/sub", "op": "Const", "attr": {"value": {"tensor": {"dtype": "DT_FLOAT", "tensorShape": {"dim": [{"size": "1"}, {"size": "1"}, {"size": "1"}, {"size": "512"}]}}}, "dtype": {"type": "DT_FLOAT"}}}, {"name": "StatefulPartitionedCall/dfew_classifier_1/resnet50_1/conv3_block1_add_1/ArithmeticOptimizer/AddOpsRewrite_Leaf_0_Add", "op": "Const", "attr": {"value": {"tensor": {"dtype": "DT_FLOAT", "tensorShape": {"dim": [{"size": "1"}, {"size": "1"}, {"size": "1"}, {"size": "512"}]}}}, "dtype": {"type": "DT_FLOAT"}}}, {"name": "StatefulPartitionedCall/dfew_classifier_1/resnet50_1/conv3_block1_0_conv_1/convolution/merged_input", "op": "Const", "attr": {"value": {"tensor": {"dtype": "DT_FLOAT", "tensorShape": {"dim": [{"size": "1"}, {"size": "1"}, {"size": "256"}, {"size": "512"}]}}}, "dtype": {"type": "DT_FLOAT"}}}, {"name": "StatefulPartitionedCall/dfew_classifier_1/resnet50_1/conv2_block3_3_bn_1/batchnorm/sub", "op": "Const", "attr": {"value": {"tensor": {"dtype": "DT_FLOAT", "tensorShape": {"dim": [{"size": "1"}, {"size": "1"}, {"size": "1"}, {"size": "256"}]}}}, "dtype": {"type": "DT_FLOAT"}}}, {"name": "StatefulPartitionedCall/dfew_classifier_1/resnet50_1/conv2_block2_3_bn_1/batchnorm/sub", "op": "Const", "attr": {"value": {"tensor": {"dtype": "DT_FLOAT", "tensorShape": {"dim": [{"size": "1"}, {"size": "1"}, {"size": "1"}, {"size": "256"}]}}}, "dtype": {"type": "DT_FLOAT"}}}, {"name": "StatefulPartitionedCall/dfew_classifier_1/resnet50_1/conv2_block1_add_1/ArithmeticOptimizer/AddOpsRewrite_Leaf_0_Add", "op": "Const", "attr": {"value": {"tensor": {"dtype": "DT_FLOAT", "tensorShape": {"dim": [{"size": "1"}, {"size": "1"}, {"size": "1"}, {"size": "256"}]}}}, "dtype": {"type": "DT_FLOAT"}}}, {"name": "StatefulPartitionedCall/dfew_classifier_1/resnet50_1/conv2_block1_0_conv_1/convolution/merged_input", "op": "Const", "attr": {"value": {"tensor": {"dtype": "DT_FLOAT", "tensorShape": {"dim": [{"size": "1"}, {"size": "1"}, {"size": "64"}, {"size": "256"}]}}}, "dtype": {"type": "DT_FLOAT"}}}, {"name": "StatefulPartitionedCall/dfew_classifier_1/Reshape/shape", "op": "Const", "attr": {"value": {"tensor": {"dtype": "DT_INT32", "tensorShape": {"dim": [{"size": "4"}]}}}, "dtype": {"type": "DT_INT32"}}}, {"name": "StatefulPartitionedCall/dfew_classifier_1/resnet50_1/conv1_pad_1/Const", "op": "Const", "attr": {"value": {"tensor": {"dtype": "DT_INT32", "tensorShape": {"dim": [{"size": "4"}, {"size": "2"}]}}}, "dtype": {"type": "DT_INT32"}}}, {"name": "StatefulPartitionedCall/dfew_classifier_1/resnet50_1/conv1_conv_1/convolution/ReadVariableOp", "op": "Const", "attr": {"value": {"tensor": {"dtype": "DT_FLOAT", "tensorShape": {"dim": [{"size": "7"}, {"size": "7"}, {"size": "3"}, {"size": "64"}]}}}, "dtype": {"type": "DT_FLOAT"}}}, {"name": "StatefulPartitionedCall/dfew_classifier_1/resnet50_1/conv1_conv_1/Squeeze", "op": "Const", "attr": {"value": {"tensor": {"dtype": "DT_FLOAT", "tensorShape": {"dim": [{"size": "64"}]}}}, "dtype": {"type": "DT_FLOAT"}}}, {"name": "StatefulPartitionedCall/dfew_classifier_1/resnet50_1/conv1_bn_1/batchnorm/mul", "op": "Const", "attr": {"value": {"tensor": {"dtype": "DT_FLOAT", "tensorShape": {"dim": [{"size": "1"}, {"size": "1"}, {"size": "1"}, {"size": "64"}]}}}, "dtype": {"type": "DT_FLOAT"}}}, {"name": "StatefulPartitionedCall/dfew_classifier_1/resnet50_1/conv1_bn_1/batchnorm/sub", "op": "Const", "attr": {"value": {"tensor": {"dtype": "DT_FLOAT", "tensorShape": {"dim": [{"size": "1"}, {"size": "1"}, {"size": "1"}, {"size": "64"}]}}}, "dtype": {"type": "DT_FLOAT"}}}, {"name": "StatefulPartitionedCall/dfew_classifier_1/resnet50_1/pool1_pad_1/Const", "op": "Const", "attr": {"value": {"tensor": {"dtype": "DT_INT32", "tensorShape": {"dim": [{"size": "4"}, {"size": "2"}]}}}, "dtype": {"type": "DT_INT32"}}}, {"name": "StatefulPartitionedCall/dfew_classifier_1/resnet50_1/conv2_block1_1_conv_1/convolution/merged_input", "op": "Const", "attr": {"value": {"tensor": {"dtype": "DT_FLOAT", "tensorShape": {"dim": [{"size": "1"}, {"size": "1"}, {"size": "64"}, {"size": "64"}]}}}, "dtype": {"type": "DT_FLOAT"}}}, {"name": "StatefulPartitionedCall/dfew_classifier_1/resnet50_1/conv2_block1_1_bn_1/batchnorm/sub", "op": "Const", "attr": {"value": {"tensor": {"dtype": "DT_FLOAT", "tensorShape": {"dim": [{"size": "1"}, {"size": "1"}, {"size": "1"}, {"size": "64"}]}}}, "dtype": {"type": "DT_FLOAT"}}}, {"name": "StatefulPartitionedCall/dfew_classifier_1/resnet50_1/conv2_block1_2_conv_1/convolution/merged_input", "op": "Const", "attr": {"value": {"tensor": {"dtype": "DT_FLOAT", "tensorShape": {"dim": [{"size": "3"}, {"size": "3"}, {"size": "64"}, {"size": "64"}]}}}, "dtype": {"type": "DT_FLOAT"}}}, {"name": "StatefulPartitionedCall/dfew_classifier_1/resnet50_1/conv2_block1_2_bn_1/batchnorm/sub", "op": "Const", "attr": {"value": {"tensor": {"dtype": "DT_FLOAT", "tensorShape": {"dim": [{"size": "1"}, {"size": "1"}, {"size": "1"}, {"size": "64"}]}}}, "dtype": {"type": "DT_FLOAT"}}}, {"name": "StatefulPartitionedCall/dfew_classifier_1/resnet50_1/conv2_block1_3_conv_1/convolution/merged_input", "op": "Const", "attr": {"value": {"tensor": {"dtype": "DT_FLOAT", "tensorShape": {"dim": [{"size": "1"}, {"size": "1"}, {"size": "64"}, {"size": "256"}]}}}, "dtype": {"type": "DT_FLOAT"}}}, {"name": "StatefulPartitionedCall/dfew_classifier_1/resnet50_1/conv2_block2_1_conv_1/convolution/merged_input", "op": "Const", "attr": {"value": {"tensor": {"dtype": "DT_FLOAT", "tensorShape": {"dim": [{"size": "1"}, {"size": "1"}, {"size": "256"}, {"size": "64"}]}}}, "dtype": {"type": "DT_FLOAT"}}}, {"name": "StatefulPartitionedCall/dfew_classifier_1/resnet50_1/conv2_block2_1_bn_1/batchnorm/sub", "op": "Const", "attr": {"value": {"tensor": {"dtype": "DT_FLOAT", "tensorShape": {"dim": [{"size": "1"}, {"size": "1"}, {"size": "1"}, {"size": "64"}]}}}, "dtype": {"type": "DT_FLOAT"}}}, {"name": "StatefulPartitionedCall/dfew_classifier_1/resnet50_1/conv2_block2_2_conv_1/convolution/merged_input", "op": "Const", "attr": {"value": {"tensor": {"dtype": "DT_FLOAT", "tensorShape": {"dim": [{"size": "3"}, {"size": "3"}, {"size": "64"}, {"size": "64"}]}}}, "dtype": {"type": "DT_FLOAT"}}}, {"name": "StatefulPartitionedCall/dfew_classifier_1/resnet50_1/conv2_block2_2_bn_1/batchnorm/sub", "op": "Const", "attr": {"value": {"tensor": {"dtype": "DT_FLOAT", "tensorShape": {"dim": [{"size": "1"}, {"size": "1"}, {"size": "1"}, {"size": "64"}]}}}, "dtype": {"type": "DT_FLOAT"}}}, {"name": "StatefulPartitionedCall/dfew_classifier_1/resnet50_1/conv2_block2_3_conv_1/convolution/merged_input", "op": "Const", "attr": {"value": {"tensor": {"dtype": "DT_FLOAT", "tensorShape": {"dim": [{"size": "1"}, {"size": "1"}, {"size": "64"}, {"size": "256"}]}}}, "dtype": {"type": "DT_FLOAT"}}}, {"name": "StatefulPartitionedCall/dfew_classifier_1/resnet50_1/conv2_block3_1_conv_1/convolution/merged_input", "op": "Const", "attr": {"value": {"tensor": {"dtype": "DT_FLOAT", "tensorShape": {"dim": [{"size": "1"}, {"size": "1"}, {"size": "256"}, {"size": "64"}]}}}, "dtype": {"type": "DT_FLOAT"}}}, {"name": "StatefulPartitionedCall/dfew_classifier_1/resnet50_1/conv2_block3_1_bn_1/batchnorm/sub", "op": "Const", "attr": {"value": {"tensor": {"dtype": "DT_FLOAT", "tensorShape": {"dim": [{"size": "1"}, {"size": "1"}, {"size": "1"}, {"size": "64"}]}}}, "dtype": {"type": "DT_FLOAT"}}}, {"name": "StatefulPartitionedCall/dfew_classifier_1/resnet50_1/conv2_block3_2_conv_1/convolution/merged_input", "op": "Const", "attr": {"value": {"tensor": {"dtype": "DT_FLOAT", "tensorShape": {"dim": [{"size": "3"}, {"size": "3"}, {"size": "64"}, {"size": "64"}]}}}, "dtype": {"type": "DT_FLOAT"}}}, {"name": "StatefulPartitionedCall/dfew_classifier_1/resnet50_1/conv2_block3_2_bn_1/batchnorm/sub", "op": "Const", "attr": {"value": {"tensor": {"dtype": "DT_FLOAT", "tensorShape": {"dim": [{"size": "1"}, {"size": "1"}, {"size": "1"}, {"size": "64"}]}}}, "dtype": {"type": "DT_FLOAT"}}}, {"name": "StatefulPartitionedCall/dfew_classifier_1/resnet50_1/conv2_block3_3_conv_1/convolution/merged_input", "op": "Const", "attr": {"value": {"tensor": {"dtype": "DT_FLOAT", "tensorShape": {"dim": [{"size": "1"}, {"size": "1"}, {"size": "64"}, {"size": "256"}]}}}, "dtype": {"type": "DT_FLOAT"}}}, {"name": "StatefulPartitionedCall/dfew_classifier_1/resnet50_1/conv3_block1_1_conv_1/convolution/merged_input", "op": "Const", "attr": {"value": {"tensor": {"dtype": "DT_FLOAT", "tensorShape": {"dim": [{"size": "1"}, {"size": "1"}, {"size": "256"}, {"size": "128"}]}}}, "dtype": {"type": "DT_FLOAT"}}}, {"name": "StatefulPartitionedCall/dfew_classifier_1/resnet50_1/conv3_block1_1_bn_1/batchnorm/sub", "op": "Const", "attr": {"value": {"tensor": {"dtype": "DT_FLOAT", "tensorShape": {"dim": [{"size": "1"}, {"size": "1"}, {"size": "1"}, {"size": "128"}]}}}, "dtype": {"type": "DT_FLOAT"}}}, {"name": "StatefulPartitionedCall/dfew_classifier_1/resnet50_1/conv3_block1_2_conv_1/convolution/merged_input", "op": "Const", "attr": {"value": {"tensor": {"dtype": "DT_FLOAT", "tensorShape": {"dim": [{"size": "3"}, {"size": "3"}, {"size": "128"}, {"size": "128"}]}}}, "dtype": {"type": "DT_FLOAT"}}}, {"name": "StatefulPartitionedCall/dfew_classifier_1/resnet50_1/conv3_block1_2_bn_1/batchnorm/sub", "op": "Const", "attr": {"value": {"tensor": {"dtype": "DT_FLOAT", "tensorShape": {"dim": [{"size": "1"}, {"size": "1"}, {"size": "1"}, {"size": "128"}]}}}, "dtype": {"type": "DT_FLOAT"}}}, {"name": "StatefulPartitionedCall/dfew_classifier_1/resnet50_1/conv3_block1_3_conv_1/convolution/merged_input", "op": "Const", "attr": {"value": {"tensor": {"dtype": "DT_FLOAT", "tensorShape": {"dim": [{"size": "1"}, {"size": "1"}, {"size": "128"}, {"size": "512"}]}}}, "dtype": {"type": "DT_FLOAT"}}}, {"name": "StatefulPartitionedCall/dfew_classifier_1/resnet50_1/conv3_block2_1_conv_1/convolution/merged_input", "op": "Const", "attr": {"value": {"tensor": {"dtype": "DT_FLOAT", "tensorShape": {"dim": [{"size": "1"}, {"size": "1"}, {"size": "512"}, {"size": "128"}]}}}, "dtype": {"type": "DT_FLOAT"}}}, {"name": "StatefulPartitionedCall/dfew_classifier_1/resnet50_1/conv3_block2_1_bn_1/batchnorm/sub", "op": "Const", "attr": {"value": {"tensor": {"dtype": "DT_FLOAT", "tensorShape": {"dim": [{"size": "1"}, {"size": "1"}, {"size": "1"}, {"size": "128"}]}}}, "dtype": {"type": "DT_FLOAT"}}}, {"name": "StatefulPartitionedCall/dfew_classifier_1/resnet50_1/conv3_block2_2_conv_1/convolution/merged_input", "op": "Const", "attr": {"value": {"tensor": {"dtype": "DT_FLOAT", "tensorShape": {"dim": [{"size": "3"}, {"size": "3"}, {"size": "128"}, {"size": "128"}]}}}, "dtype": {"type": "DT_FLOAT"}}}, {"name": "StatefulPartitionedCall/dfew_classifier_1/resnet50_1/conv3_block2_2_bn_1/batchnorm/sub", "op": "Const", "attr": {"value": {"tensor": {"dtype": "DT_FLOAT", "tensorShape": {"dim": [{"size": "1"}, {"size": "1"}, {"size": "1"}, {"size": "128"}]}}}, "dtype": {"type": "DT_FLOAT"}}}, {"name": "StatefulPartitionedCall/dfew_classifier_1/resnet50_1/conv3_block2_3_conv_1/convolution/merged_input", "op": "Const", "attr": {"value": {"tensor": {"dtype": "DT_FLOAT", "tensorShape": {"dim": [{"size": "1"}, {"size": "1"}, {"size": "128"}, {"size": "512"}]}}}, "dtype": {"type": "DT_FLOAT"}}}, {"name": "StatefulPartitionedCall/dfew_classifier_1/resnet50_1/conv3_block3_1_conv_1/convolution/merged_input", "op": "Const", "attr": {"value": {"tensor": {"dtype": "DT_FLOAT", "tensorShape": {"dim": [{"size": "1"}, {"size": "1"}, {"size": "512"}, {"size": "128"}]}}}, "dtype": {"type": "DT_FLOAT"}}}, {"name": "StatefulPartitionedCall/dfew_classifier_1/resnet50_1/conv3_block3_1_bn_1/batchnorm/sub", "op": "Const", "attr": {"value": {"tensor": {"dtype": "DT_FLOAT", "tensorShape": {"dim": [{"size": "1"}, {"size": "1"}, {"size": "1"}, {"size": "128"}]}}}, "dtype": {"type": "DT_FLOAT"}}}, {"name": "StatefulPartitionedCall/dfew_classifier_1/resnet50_1/conv3_block3_2_conv_1/convolution/merged_input", "op": "Const", "attr": {"value": {"tensor": {"dtype": "DT_FLOAT", "tensorShape": {"dim": [{"size": "3"}, {"size": "3"}, {"size": "128"}, {"size": "128"}]}}}, "dtype": {"type": "DT_FLOAT"}}}, {"name": "StatefulPartitionedCall/dfew_classifier_1/resnet50_1/conv3_block3_2_bn_1/batchnorm/sub", "op": "Const", "attr": {"value": {"tensor": {"dtype": "DT_FLOAT", "tensorShape": {"dim": [{"size": "1"}, {"size": "1"}, {"size": "1"}, {"size": "128"}]}}}, "dtype": {"type": "DT_FLOAT"}}}, {"name": "StatefulPartitionedCall/dfew_classifier_1/resnet50_1/conv3_block3_3_conv_1/convolution/merged_input", "op": "Const", "attr": {"value": {"tensor": {"dtype": "DT_FLOAT", "tensorShape": {"dim": [{"size": "1"}, {"size": "1"}, {"size": "128"}, {"size": "512"}]}}}, "dtype": {"type": "DT_FLOAT"}}}, {"name": "StatefulPartitionedCall/dfew_classifier_1/resnet50_1/conv3_block4_1_conv_1/convolution/merged_input", "op": "Const", "attr": {"value": {"tensor": {"dtype": "DT_FLOAT", "tensorShape": {"dim": [{"size": "1"}, {"size": "1"}, {"size": "512"}, {"size": "128"}]}}}, "dtype": {"type": "DT_FLOAT"}}}, {"name": "StatefulPartitionedCall/dfew_classifier_1/resnet50_1/conv3_block4_1_bn_1/batchnorm/sub", "op": "Const", "attr": {"value": {"tensor": {"dtype": "DT_FLOAT", "tensorShape": {"dim": [{"size": "1"}, {"size": "1"}, {"size": "1"}, {"size": "128"}]}}}, "dtype": {"type": "DT_FLOAT"}}}, {"name": "StatefulPartitionedCall/dfew_classifier_1/resnet50_1/conv3_block4_2_conv_1/convolution/merged_input", "op": "Const", "attr": {"value": {"tensor": {"dtype": "DT_FLOAT", "tensorShape": {"dim": [{"size": "3"}, {"size": "3"}, {"size": "128"}, {"size": "128"}]}}}, "dtype": {"type": "DT_FLOAT"}}}, {"name": "StatefulPartitionedCall/dfew_classifier_1/resnet50_1/conv3_block4_2_bn_1/batchnorm/sub", "op": "Const", "attr": {"value": {"tensor": {"dtype": "DT_FLOAT", "tensorShape": {"dim": [{"size": "1"}, {"size": "1"}, {"size": "1"}, {"size": "128"}]}}}, "dtype": {"type": "DT_FLOAT"}}}, {"name": "StatefulPartitionedCall/dfew_classifier_1/resnet50_1/conv3_block4_3_conv_1/convolution/merged_input", "op": "Const", "attr": {"value": {"tensor": {"dtype": "DT_FLOAT", "tensorShape": {"dim": [{"size": "1"}, {"size": "1"}, {"size": "128"}, {"size": "512"}]}}}, "dtype": {"type": "DT_FLOAT"}}}, {"name": "StatefulPartitionedCall/dfew_classifier_1/resnet50_1/conv4_block1_1_conv_1/convolution/merged_input", "op": "Const", "attr": {"value": {"tensor": {"dtype": "DT_FLOAT", "tensorShape": {"dim": [{"size": "1"}, {"size": "1"}, {"size": "512"}, {"size": "256"}]}}}, "dtype": {"type": "DT_FLOAT"}}}, {"name": "StatefulPartitionedCall/dfew_classifier_1/resnet50_1/conv4_block1_1_bn_1/batchnorm/sub", "op": "Const", "attr": {"value": {"tensor": {"dtype": "DT_FLOAT", "tensorShape": {"dim": [{"size": "1"}, {"size": "1"}, {"size": "1"}, {"size": "256"}]}}}, "dtype": {"type": "DT_FLOAT"}}}, {"name": "StatefulPartitionedCall/dfew_classifier_1/resnet50_1/conv4_block1_2_conv_1/convolution/merged_input", "op": "Const", "attr": {"value": {"tensor": {"dtype": "DT_FLOAT", "tensorShape": {"dim": [{"size": "3"}, {"size": "3"}, {"size": "256"}, {"size": "256"}]}}}, "dtype": {"type": "DT_FLOAT"}}}, {"name": "StatefulPartitionedCall/dfew_classifier_1/resnet50_1/conv4_block1_2_bn_1/batchnorm/sub", "op": "Const", "attr": {"value": {"tensor": {"dtype": "DT_FLOAT", "tensorShape": {"dim": [{"size": "1"}, {"size": "1"}, {"size": "1"}, {"size": "256"}]}}}, "dtype": {"type": "DT_FLOAT"}}}, {"name": "StatefulPartitionedCall/dfew_classifier_1/resnet50_1/conv4_block1_3_conv_1/convolution/merged_input", "op": "Const", "attr": {"value": {"tensor": {"dtype": "DT_FLOAT", "tensorShape": {"dim": [{"size": "1"}, {"size": "1"}, {"size": "256"}, {"size": "1024"}]}}}, "dtype": {"type": "DT_FLOAT"}}}, {"name": "StatefulPartitionedCall/dfew_classifier_1/resnet50_1/conv4_block2_1_conv_1/convolution/merged_input", "op": "Const", "attr": {"value": {"tensor": {"dtype": "DT_FLOAT", "tensorShape": {"dim": [{"size": "1"}, {"size": "1"}, {"size": "1024"}, {"size": "256"}]}}}, "dtype": {"type": "DT_FLOAT"}}}, {"name": "StatefulPartitionedCall/dfew_classifier_1/resnet50_1/conv4_block2_1_bn_1/batchnorm/sub", "op": "Const", "attr": {"value": {"tensor": {"dtype": "DT_FLOAT", "tensorShape": {"dim": [{"size": "1"}, {"size": "1"}, {"size": "1"}, {"size": "256"}]}}}, "dtype": {"type": "DT_FLOAT"}}}, {"name": "StatefulPartitionedCall/dfew_classifier_1/resnet50_1/conv4_block2_2_conv_1/convolution/merged_input", "op": "Const", "attr": {"value": {"tensor": {"dtype": "DT_FLOAT", "tensorShape": {"dim": [{"size": "3"}, {"size": "3"}, {"size": "256"}, {"size": "256"}]}}}, "dtype": {"type": "DT_FLOAT"}}}, {"name": "StatefulPartitionedCall/dfew_classifier_1/resnet50_1/conv4_block2_2_bn_1/batchnorm/sub", "op": "Const", "attr": {"value": {"tensor": {"dtype": "DT_FLOAT", "tensorShape": {"dim": [{"size": "1"}, {"size": "1"}, {"size": "1"}, {"size": "256"}]}}}, "dtype": {"type": "DT_FLOAT"}}}, {"name": "StatefulPartitionedCall/dfew_classifier_1/resnet50_1/conv4_block2_3_conv_1/convolution/merged_input", "op": "Const", "attr": {"value": {"tensor": {"dtype": "DT_FLOAT", "tensorShape": {"dim": [{"size": "1"}, {"size": "1"}, {"size": "256"}, {"size": "1024"}]}}}, "dtype": {"type": "DT_FLOAT"}}}, {"name": "StatefulPartitionedCall/dfew_classifier_1/resnet50_1/conv4_block3_1_conv_1/convolution/merged_input", "op": "Const", "attr": {"value": {"tensor": {"dtype": "DT_FLOAT", "tensorShape": {"dim": [{"size": "1"}, {"size": "1"}, {"size": "1024"}, {"size": "256"}]}}}, "dtype": {"type": "DT_FLOAT"}}}, {"name": "StatefulPartitionedCall/dfew_classifier_1/resnet50_1/conv4_block3_1_bn_1/batchnorm/sub", "op": "Const", "attr": {"value": {"tensor": {"dtype": "DT_FLOAT", "tensorShape": {"dim": [{"size": "1"}, {"size": "1"}, {"size": "1"}, {"size": "256"}]}}}, "dtype": {"type": "DT_FLOAT"}}}, {"name": "StatefulPartitionedCall/dfew_classifier_1/resnet50_1/conv4_block3_2_conv_1/convolution/merged_input", "op": "Const", "attr": {"value": {"tensor": {"dtype": "DT_FLOAT", "tensorShape": {"dim": [{"size": "3"}, {"size": "3"}, {"size": "256"}, {"size": "256"}]}}}, "dtype": {"type": "DT_FLOAT"}}}, {"name": "StatefulPartitionedCall/dfew_classifier_1/resnet50_1/conv4_block3_2_bn_1/batchnorm/sub", "op": "Const", "attr": {"value": {"tensor": {"dtype": "DT_FLOAT", "tensorShape": {"dim": [{"size": "1"}, {"size": "1"}, {"size": "1"}, {"size": "256"}]}}}, "dtype": {"type": "DT_FLOAT"}}}, {"name": "StatefulPartitionedCall/dfew_classifier_1/resnet50_1/conv4_block3_3_conv_1/convolution/merged_input", "op": "Const", "attr": {"value": {"tensor": {"dtype": "DT_FLOAT", "tensorShape": {"dim": [{"size": "1"}, {"size": "1"}, {"size": "256"}, {"size": "1024"}]}}}, "dtype": {"type": "DT_FLOAT"}}}, {"name": "StatefulPartitionedCall/dfew_classifier_1/resnet50_1/conv4_block4_1_conv_1/convolution/merged_input", "op": "Const", "attr": {"value": {"tensor": {"dtype": "DT_FLOAT", "tensorShape": {"dim": [{"size": "1"}, {"size": "1"}, {"size": "1024"}, {"size": "256"}]}}}, "dtype": {"type": "DT_FLOAT"}}}, {"name": "StatefulPartitionedCall/dfew_classifier_1/resnet50_1/conv4_block4_1_bn_1/batchnorm/sub", "op": "Const", "attr": {"value": {"tensor": {"dtype": "DT_FLOAT", "tensorShape": {"dim": [{"size": "1"}, {"size": "1"}, {"size": "1"}, {"size": "256"}]}}}, "dtype": {"type": "DT_FLOAT"}}}, {"name": "StatefulPartitionedCall/dfew_classifier_1/resnet50_1/conv4_block4_2_conv_1/convolution/merged_input", "op": "Const", "attr": {"value": {"tensor": {"dtype": "DT_FLOAT", "tensorShape": {"dim": [{"size": "3"}, {"size": "3"}, {"size": "256"}, {"size": "256"}]}}}, "dtype": {"type": "DT_FLOAT"}}}, {"name": "StatefulPartitionedCall/dfew_classifier_1/resnet50_1/conv4_block4_2_bn_1/batchnorm/sub", "op": "Const", "attr": {"value": {"tensor": {"dtype": "DT_FLOAT", "tensorShape": {"dim": [{"size": "1"}, {"size": "1"}, {"size": "1"}, {"size": "256"}]}}}, "dtype": {"type": "DT_FLOAT"}}}, {"name": "StatefulPartitionedCall/dfew_classifier_1/resnet50_1/conv4_block4_3_conv_1/convolution/merged_input", "op": "Const", "attr": {"value": {"tensor": {"dtype": "DT_FLOAT", "tensorShape": {"dim": [{"size": "1"}, {"size": "1"}, {"size": "256"}, {"size": "1024"}]}}}, "dtype": {"type": "DT_FLOAT"}}}, {"name": "StatefulPartitionedCall/dfew_classifier_1/resnet50_1/conv4_block5_1_conv_1/convolution/merged_input", "op": "Const", "attr": {"value": {"tensor": {"dtype": "DT_FLOAT", "tensorShape": {"dim": [{"size": "1"}, {"size": "1"}, {"size": "1024"}, {"size": "256"}]}}}, "dtype": {"type": "DT_FLOAT"}}}, {"name": "StatefulPartitionedCall/dfew_classifier_1/resnet50_1/conv4_block5_1_bn_1/batchnorm/sub", "op": "Const", "attr": {"value": {"tensor": {"dtype": "DT_FLOAT", "tensorShape": {"dim": [{"size": "1"}, {"size": "1"}, {"size": "1"}, {"size": "256"}]}}}, "dtype": {"type": "DT_FLOAT"}}}, {"name": "StatefulPartitionedCall/dfew_classifier_1/resnet50_1/conv4_block5_2_conv_1/convolution/merged_input", "op": "Const", "attr": {"value": {"tensor": {"dtype": "DT_FLOAT", "tensorShape": {"dim": [{"size": "3"}, {"size": "3"}, {"size": "256"}, {"size": "256"}]}}}, "dtype": {"type": "DT_FLOAT"}}}, {"name": "StatefulPartitionedCall/dfew_classifier_1/resnet50_1/conv4_block5_2_bn_1/batchnorm/sub", "op": "Const", "attr": {"value": {"tensor": {"dtype": "DT_FLOAT", "tensorShape": {"dim": [{"size": "1"}, {"size": "1"}, {"size": "1"}, {"size": "256"}]}}}, "dtype": {"type": "DT_FLOAT"}}}, {"name": "StatefulPartitionedCall/dfew_classifier_1/resnet50_1/conv4_block5_3_conv_1/convolution/merged_input", "op": "Const", "attr": {"value": {"tensor": {"dtype": "DT_FLOAT", "tensorShape": {"dim": [{"size": "1"}, {"size": "1"}, {"size": "256"}, {"size": "1024"}]}}}, "dtype": {"type": "DT_FLOAT"}}}, {"name": "StatefulPartitionedCall/dfew_classifier_1/resnet50_1/conv4_block6_1_conv_1/convolution/merged_input", "op": "Const", "attr": {"value": {"tensor": {"dtype": "DT_FLOAT", "tensorShape": {"dim": [{"size": "1"}, {"size": "1"}, {"size": "1024"}, {"size": "256"}]}}}, "dtype": {"type": "DT_FLOAT"}}}, {"name": "StatefulPartitionedCall/dfew_classifier_1/resnet50_1/conv4_block6_1_bn_1/batchnorm/sub", "op": "Const", "attr": {"value": {"tensor": {"dtype": "DT_FLOAT", "tensorShape": {"dim": [{"size": "1"}, {"size": "1"}, {"size": "1"}, {"size": "256"}]}}}, "dtype": {"type": "DT_FLOAT"}}}, {"name": "StatefulPartitionedCall/dfew_classifier_1/resnet50_1/conv4_block6_2_conv_1/convolution/merged_input", "op": "Const", "attr": {"value": {"tensor": {"dtype": "DT_FLOAT", "tensorShape": {"dim": [{"size": "3"}, {"size": "3"}, {"size": "256"}, {"size": "256"}]}}}, "dtype": {"type": "DT_FLOAT"}}}, {"name": "StatefulPartitionedCall/dfew_classifier_1/resnet50_1/conv4_block6_2_bn_1/batchnorm/sub", "op": "Const", "attr": {"value": {"tensor": {"dtype": "DT_FLOAT", "tensorShape": {"dim": [{"size": "1"}, {"size": "1"}, {"size": "1"}, {"size": "256"}]}}}, "dtype": {"type": "DT_FLOAT"}}}, {"name": "StatefulPartitionedCall/dfew_classifier_1/resnet50_1/conv4_block6_3_conv_1/convolution/merged_input", "op": "Const", "attr": {"value": {"tensor": {"dtype": "DT_FLOAT", "tensorShape": {"dim": [{"size": "1"}, {"size": "1"}, {"size": "256"}, {"size": "1024"}]}}}, "dtype": {"type": "DT_FLOAT"}}}, {"name": "StatefulPartitionedCall/dfew_classifier_1/resnet50_1/conv5_block1_1_conv_1/convolution/merged_input", "op": "Const", "attr": {"value": {"tensor": {"dtype": "DT_FLOAT", "tensorShape": {"dim": [{"size": "1"}, {"size": "1"}, {"size": "1024"}, {"size": "512"}]}}}, "dtype": {"type": "DT_FLOAT"}}}, {"name": "StatefulPartitionedCall/dfew_classifier_1/resnet50_1/conv5_block1_1_bn_1/batchnorm/sub", "op": "Const", "attr": {"value": {"tensor": {"dtype": "DT_FLOAT", "tensorShape": {"dim": [{"size": "1"}, {"size": "1"}, {"size": "1"}, {"size": "512"}]}}}, "dtype": {"type": "DT_FLOAT"}}}, {"name": "StatefulPartitionedCall/dfew_classifier_1/resnet50_1/conv5_block1_2_conv_1/convolution/ReadVariableOp", "op": "Const", "attr": {"value": {"tensor": {"dtype": "DT_FLOAT", "tensorShape": {"dim": [{"size": "3"}, {"size": "3"}, {"size": "512"}, {"size": "512"}]}}}, "dtype": {"type": "DT_FLOAT"}}}, {"name": "StatefulPartitionedCall/dfew_classifier_1/resnet50_1/conv5_block1_2_conv_1/Squeeze", "op": "Const", "attr": {"value": {"tensor": {"dtype": "DT_FLOAT", "tensorShape": {"dim": [{"size": "512"}]}}}, "dtype": {"type": "DT_FLOAT"}}}, {"name": "StatefulPartitionedCall/dfew_classifier_1/resnet50_1/conv5_block1_2_bn_1/batchnorm/mul", "op": "Const", "attr": {"value": {"tensor": {"dtype": "DT_FLOAT", "tensorShape": {"dim": [{"size": "1"}, {"size": "1"}, {"size": "1"}, {"size": "512"}]}}}, "dtype": {"type": "DT_FLOAT"}}}, {"name": "StatefulPartitionedCall/dfew_classifier_1/resnet50_1/conv5_block1_2_bn_1/batchnorm/sub", "op": "Const", "attr": {"value": {"tensor": {"dtype": "DT_FLOAT", "tensorShape": {"dim": [{"size": "1"}, {"size": "1"}, {"size": "1"}, {"size": "512"}]}}}, "dtype": {"type": "DT_FLOAT"}}}, {"name": "StatefulPartitionedCall/dfew_classifier_1/resnet50_1/conv5_block1_3_conv_1/convolution/ReadVariableOp", "op": "Const", "attr": {"value": {"tensor": {"dtype": "DT_FLOAT", "tensorShape": {"dim": [{"size": "1"}, {"size": "1"}, {"size": "512"}, {"size": "2048"}]}}}, "dtype": {"type": "DT_FLOAT"}}}, {"name": "StatefulPartitionedCall/dfew_classifier_1/resnet50_1/conv5_block1_3_conv_1/Squeeze", "op": "Const", "attr": {"value": {"tensor": {"dtype": "DT_FLOAT", "tensorShape": {"dim": [{"size": "2048"}]}}}, "dtype": {"type": "DT_FLOAT"}}}, {"name": "StatefulPartitionedCall/dfew_classifier_1/resnet50_1/conv5_block1_3_bn_1/batchnorm/mul", "op": "Const", "attr": {"value": {"tensor": {"dtype": "DT_FLOAT", "tensorShape": {"dim": [{"size": "1"}, {"size": "1"}, {"size": "1"}, {"size": "2048"}]}}}, "dtype": {"type": "DT_FLOAT"}}}, {"name": "StatefulPartitionedCall/dfew_classifier_1/resnet50_1/conv5_block2_1_conv_1/convolution/ReadVariableOp", "op": "Const", "attr": {"value": {"tensor": {"dtype": "DT_FLOAT", "tensorShape": {"dim": [{"size": "1"}, {"size": "1"}, {"size": "2048"}, {"size": "512"}]}}}, "dtype": {"type": "DT_FLOAT"}}}, {"name": "StatefulPartitionedCall/dfew_classifier_1/resnet50_1/conv5_block2_1_conv_1/Squeeze", "op": "Const", "attr": {"value": {"tensor": {"dtype": "DT_FLOAT", "tensorShape": {"dim": [{"size": "512"}]}}}, "dtype": {"type": "DT_FLOAT"}}}, {"name": "StatefulPartitionedCall/dfew_classifier_1/resnet50_1/conv5_block2_1_bn_1/batchnorm/mul", "op": "Const", "attr": {"value": {"tensor": {"dtype": "DT_FLOAT", "tensorShape": {"dim": [{"size": "1"}, {"size": "1"}, {"size": "1"}, {"size": "512"}]}}}, "dtype": {"type": "DT_FLOAT"}}}, {"name": "StatefulPartitionedCall/dfew_classifier_1/resnet50_1/conv5_block2_1_bn_1/batchnorm/sub", "op": "Const", "attr": {"value": {"tensor": {"dtype": "DT_FLOAT", "tensorShape": {"dim": [{"size": "1"}, {"size": "1"}, {"size": "1"}, {"size": "512"}]}}}, "dtype": {"type": "DT_FLOAT"}}}, {"name": "StatefulPartitionedCall/dfew_classifier_1/resnet50_1/conv5_block2_2_conv_1/convolution/ReadVariableOp", "op": "Const", "attr": {"value": {"tensor": {"dtype": "DT_FLOAT", "tensorShape": {"dim": [{"size": "3"}, {"size": "3"}, {"size": "512"}, {"size": "512"}]}}}, "dtype": {"type": "DT_FLOAT"}}}, {"name": "StatefulPartitionedCall/dfew_classifier_1/resnet50_1/conv5_block2_2_conv_1/Squeeze", "op": "Const", "attr": {"value": {"tensor": {"dtype": "DT_FLOAT", "tensorShape": {"dim": [{"size": "512"}]}}}, "dtype": {"type": "DT_FLOAT"}}}, {"name": "StatefulPartitionedCall/dfew_classifier_1/resnet50_1/conv5_block2_2_bn_1/batchnorm/mul", "op": "Const", "attr": {"value": {"tensor": {"dtype": "DT_FLOAT", "tensorShape": {"dim": [{"size": "1"}, {"size": "1"}, {"size": "1"}, {"size": "512"}]}}}, "dtype": {"type": "DT_FLOAT"}}}, {"name": "StatefulPartitionedCall/dfew_classifier_1/resnet50_1/conv5_block2_2_bn_1/batchnorm/sub", "op": "Const", "attr": {"value": {"tensor": {"dtype": "DT_FLOAT", "tensorShape": {"dim": [{"size": "1"}, {"size": "1"}, {"size": "1"}, {"size": "512"}]}}}, "dtype": {"type": "DT_FLOAT"}}}, {"name": "StatefulPartitionedCall/dfew_classifier_1/resnet50_1/conv5_block2_3_conv_1/convolution/ReadVariableOp", "op": "Const", "attr": {"value": {"tensor": {"dtype": "DT_FLOAT", "tensorShape": {"dim": [{"size": "1"}, {"size": "1"}, {"size": "512"}, {"size": "2048"}]}}}, "dtype": {"type": "DT_FLOAT"}}}, {"name": "StatefulPartitionedCall/dfew_classifier_1/resnet50_1/conv5_block2_3_conv_1/Squeeze", "op": "Const", "attr": {"value": {"tensor": {"dtype": "DT_FLOAT", "tensorShape": {"dim": [{"size": "2048"}]}}}, "dtype": {"type": "DT_FLOAT"}}}, {"name": "StatefulPartitionedCall/dfew_classifier_1/resnet50_1/conv5_block2_3_bn_1/batchnorm/mul", "op": "Const", "attr": {"value": {"tensor": {"dtype": "DT_FLOAT", "tensorShape": {"dim": [{"size": "1"}, {"size": "1"}, {"size": "1"}, {"size": "2048"}]}}}, "dtype": {"type": "DT_FLOAT"}}}, {"name": "StatefulPartitionedCall/dfew_classifier_1/resnet50_1/conv5_block3_1_conv_1/convolution/ReadVariableOp", "op": "Const", "attr": {"value": {"tensor": {"dtype": "DT_FLOAT", "tensorShape": {"dim": [{"size": "1"}, {"size": "1"}, {"size": "2048"}, {"size": "512"}]}}}, "dtype": {"type": "DT_FLOAT"}}}, {"name": "StatefulPartitionedCall/dfew_classifier_1/resnet50_1/conv5_block3_1_conv_1/Squeeze", "op": "Const", "attr": {"value": {"tensor": {"dtype": "DT_FLOAT", "tensorShape": {"dim": [{"size": "512"}]}}}, "dtype": {"type": "DT_FLOAT"}}}, {"name": "StatefulPartitionedCall/dfew_classifier_1/resnet50_1/conv5_block3_1_bn_1/batchnorm/mul", "op": "Const", "attr": {"value": {"tensor": {"dtype": "DT_FLOAT", "tensorShape": {"dim": [{"size": "1"}, {"size": "1"}, {"size": "1"}, {"size": "512"}]}}}, "dtype": {"type": "DT_FLOAT"}}}, {"name": "StatefulPartitionedCall/dfew_classifier_1/resnet50_1/conv5_block3_1_bn_1/batchnorm/sub", "op": "Const", "attr": {"value": {"tensor": {"dtype": "DT_FLOAT", "tensorShape": {"dim": [{"size": "1"}, {"size": "1"}, {"size": "1"}, {"size": "512"}]}}}, "dtype": {"type": "DT_FLOAT"}}}, {"name": "StatefulPartitionedCall/dfew_classifier_1/resnet50_1/conv5_block3_2_conv_1/convolution/ReadVariableOp", "op": "Const", "attr": {"value": {"tensor": {"dtype": "DT_FLOAT", "tensorShape": {"dim": [{"size": "3"}, {"size": "3"}, {"size": "512"}, {"size": "512"}]}}}, "dtype": {"type": "DT_FLOAT"}}}, {"name": "StatefulPartitionedCall/dfew_classifier_1/resnet50_1/conv5_block3_2_conv_1/Squeeze", "op": "Const", "attr": {"value": {"tensor": {"dtype": "DT_FLOAT", "tensorShape": {"dim": [{"size": "512"}]}}}, "dtype": {"type": "DT_FLOAT"}}}, {"name": "StatefulPartitionedCall/dfew_classifier_1/resnet50_1/conv5_block3_2_bn_1/batchnorm/mul", "op": "Const", "attr": {"value": {"tensor": {"dtype": "DT_FLOAT", "tensorShape": {"dim": [{"size": "1"}, {"size": "1"}, {"size": "1"}, {"size": "512"}]}}}, "dtype": {"type": "DT_FLOAT"}}}, {"name": "StatefulPartitionedCall/dfew_classifier_1/resnet50_1/conv5_block3_2_bn_1/batchnorm/sub", "op": "Const", "attr": {"value": {"tensor": {"dtype": "DT_FLOAT", "tensorShape": {"dim": [{"size": "1"}, {"size": "1"}, {"size": "1"}, {"size": "512"}]}}}, "dtype": {"type": "DT_FLOAT"}}}, {"name": "StatefulPartitionedCall/dfew_classifier_1/resnet50_1/conv5_block3_3_conv_1/convolution/ReadVariableOp", "op": "Const", "attr": {"value": {"tensor": {"dtype": "DT_FLOAT", "tensorShape": {"dim": [{"size": "1"}, {"size": "1"}, {"size": "512"}, {"size": "2048"}]}}}, "dtype": {"type": "DT_FLOAT"}}}, {"name": "StatefulPartitionedCall/dfew_classifier_1/resnet50_1/conv5_block3_3_conv_1/Squeeze", "op": "Const", "attr": {"value": {"tensor": {"dtype": "DT_FLOAT", "tensorShape": {"dim": [{"size": "2048"}]}}}, "dtype": {"type": "DT_FLOAT"}}}, {"name": "StatefulPartitionedCall/dfew_classifier_1/resnet50_1/conv5_block3_3_bn_1/batchnorm/mul", "op": "Const", "attr": {"value": {"tensor": {"dtype": "DT_FLOAT", "tensorShape": {"dim": [{"size": "1"}, {"size": "1"}, {"size": "1"}, {"size": "2048"}]}}}, "dtype": {"type": "DT_FLOAT"}}}, {"name": "StatefulPartitionedCall/dfew_classifier_1/resnet50_1/avg_pool_1/Mean/reduction_indices", "op": "Const", "attr": {"value": {"tensor": {"dtype": "DT_INT32", "tensorShape": {"dim": [{"size": "2"}]}}}, "dtype": {"type": "DT_INT32"}}}, {"name": "StatefulPartitionedCall/dfew_classifier_1/strided_slice/stack", "op": "Const", "attr": {"value": {"tensor": {"dtype": "DT_INT32", "tensorShape": {"dim": [{"size": "1"}]}}}, "dtype": {"type": "DT_INT32"}}}, {"name": "StatefulPartitionedCall/dfew_classifier_1/strided_slice/stack_1", "op": "Const", "attr": {"value": {"tensor": {"dtype": "DT_INT32", "tensorShape": {"dim": [{"size": "1"}]}}}, "dtype": {"type": "DT_INT32"}}}, {"name": "StatefulPartitionedCall/dfew_classifier_1/strided_slice/stack_2", "op": "Const", "attr": {"value": {"tensor": {"dtype": "DT_INT32", "tensorShape": {"dim": [{"size": "1"}]}}}, "dtype": {"type": "DT_INT32"}}}, {"name": "StatefulPartitionedCall/dfew_classifier_1/Reshape_1/shape/1", "op": "Const", "attr": {"value": {"tensor": {"dtype": "DT_INT32", "tensorShape": {}}}, "dtype": {"type": "DT_INT32"}}}, {"name": "StatefulPartitionedCall/dfew_classifier_1/Reshape_1/shape/2", "op": "Const", "attr": {"value": {"tensor": {"dtype": "DT_INT32", "tensorShape": {}}}, "dtype": {"type": "DT_INT32"}}}, {"name": "StatefulPartitionedCall/dfew_classifier_1/frame_attention_1/sequential_1/dense_1/Cast/ReadVariableOp", "op": "Const", "attr": {"value": {"tensor": {"dtype": "DT_FLOAT", "tensorShape": {"dim": [{"size": "2048"}, {"size": "128"}]}}}, "dtype": {"type": "DT_FLOAT"}}}, {"name": "StatefulPartitionedCall/dfew_classifier_1/frame_attention_1/sequential_1/dense_1_2/Cast/ReadVariableOp", "op": "Const", "attr": {"value": {"tensor": {"dtype": "DT_FLOAT", "tensorShape": {"dim": [{"size": "128"}, {"size": "1"}]}}}, "dtype": {"type": "DT_FLOAT"}}}, {"name": "StatefulPartitionedCall/dfew_classifier_1/frame_attention_1/concat", "op": "Const", "attr": {"value": {"tensor": {"dtype": "DT_INT32", "tensorShape": {"dim": [{"size": "3"}]}}}, "dtype": {"type": "DT_INT32"}}}, {"name": "StatefulPartitionedCall/dfew_classifier_1/frame_attention_1/concat_1", "op": "Const", "attr": {"value": {"tensor": {"dtype": "DT_INT32", "tensorShape": {"dim": [{"size": "3"}]}}}, "dtype": {"type": "DT_INT32"}}}, {"name": "StatefulPartitionedCall/dfew_classifier_1/frame_attention_1/Sum/reduction_indices", "op": "Const", "attr": {"value": {"tensor": {"dtype": "DT_INT32", "tensorShape": {}}}, "dtype": {"type": "DT_INT32"}}}, {"name": "StatefulPartitionedCall/dfew_classifier_1/fc_1/Cast/ReadVariableOp", "op": "Const", "attr": {"value": {"tensor": {"dtype": "DT_FLOAT", "tensorShape": {"dim": [{"size": "2048"}, {"size": "256"}]}}}, "dtype": {"type": "DT_FLOAT"}}}, {"name": "StatefulPartitionedCall/dfew_classifier_1/predictions_1/Cast/ReadVariableOp", "op": "Const", "attr": {"value": {"tensor": {"dtype": "DT_FLOAT", "tensorShape": {"dim": [{"size": "256"}, {"size": "8"}]}}}, "dtype": {"type": "DT_FLOAT"}}}, {"name": "args_0", "op": "Placeholder", "attr": {"shape": {"shape": {"dim": [{"size": "-1"}, {"size": "16"}, {"size": "224"}, {"size": "224"}, {"size": "3"}]}}, "dtype": {"type": "DT_FLOAT"}}}, {"name": "StatefulPartitionedCall/dfew_classifier_1/Reshape", "op": "Reshape", "input": ["args_0", "StatefulPartitionedCall/dfew_classifier_1/Reshape/shape"], "attr": {"T": {"type": "DT_FLOAT"}, "Tshape": {"type": "DT_INT32"}}}, {"name": "StatefulPartitionedCall/dfew_classifier_1/Shape", "op": "Shape", "input": ["args_0"], "attr": {"T": {"type": "DT_FLOAT"}, "out_type": {"type": "DT_INT32"}}, "experimentalType": {"typeId": "TFT_PRODUCT", "args": [{"typeId": "TFT_SHAPE_TENSOR", "args": [{"typeId": "TFT_INT32"}]}]}}, {"name": "StatefulPartitionedCall/dfew_classifier_1/resnet50_1/conv1_pad_1/Pad", "op": "Pad", "input": ["StatefulPartitionedCall/dfew_classifier_1/Reshape", "StatefulPartitionedCall/dfew_classifier_1/resnet50_1/conv1_pad_1/Const"], "attr": {"Tpaddings": {"type": "DT_INT32"}, "T": {"type": "DT_FLOAT"}}}, {"name": "StatefulPartitionedCall/dfew_classifier_1/strided_slice", "op": "StridedSlice", "input": ["StatefulPartitionedCall/dfew_classifier_1/Shape", "StatefulPartitionedCall/dfew_classifier_1/strided_slice/stack", "StatefulPartitionedCall/dfew_classifier_1/strided_slice/stack_1", "StatefulPartitionedCall/dfew_classifier_1/strided_slice/stack_2"], "attr": {"shrink_axis_mask": {"i": "1"}, "Index": {"type": "DT_INT32"}, "new_axis_mask": {"i": "0"}, "begin_mask": {"i": "0"}, "T": {"type": "DT_INT32"}, "end_mask": {"i": "0"}, "ellipsis_mask": {"i": "0"}}}, {"name": "StatefulPartitionedCall/dfew_classifier_1/resnet50_1/conv1_conv_1/BiasAdd", "op": "_FusedConv2D", "input": ["StatefulPartitionedCall/dfew_classifier_1/resnet50_1/conv1_pad_1/Pad", "StatefulPartitionedCall/dfew_classifier_1/resnet50_1/conv1_conv_1/convolution/ReadVariableOp", "StatefulPartitionedCall/dfew_classifier_1/resnet50_1/conv1_conv_1/Squeeze"], "device": "/device:CPU:0", "attr": {"num_host_args": {"i": "0"}, "data_format": {"s": "TkhXQw=="}, "filter_format": {"s": "SFdJTw=="}, "strides": {"list": {"i": ["1", "2", "2", "1"]}}, "num_args": {"i": "1"}, "fused_ops": {"list": {"s": ["Qmlhc0FkZA=="]}}, "TArgs": {"list": {"type": ["DT_FLOAT"]}}, "padding": {"s": "VkFMSUQ="}, "use_cudnn_on_gpu": {"b": true}, "leakyrelu_alpha": {"f": 0.2}, "epsilon": {"f": 0.0}, "T": {"type": "DT_FLOAT"}, "explicit_paddings": {"list": {}}, "dilations": {"list": {"i": ["1", "1", "1", "1"]}}}}, {"name": "StatefulPartitionedCall/dfew_classifier_1/Reshape_1/shape", "op": "Pack", "input": ["StatefulPartitionedCall/dfew_classifier_1/strided_slice", "StatefulPartitionedCall/dfew_classifier_1/Reshape_1/shape/1", "StatefulPartitionedCall/dfew_classifier_1/Reshape_1/shape/2"], "attr": {"N": {"i": "3"}, "axis": {"i": "0"}, "T": {"type": "DT_INT32"}}}, {"name": "StatefulPartitionedCall/dfew_classifier_1/resnet50_1/conv1_bn_1/batchnorm/mul_1", "op": "Mul", "input": ["StatefulPartitionedCall/dfew_classifier_1/resnet50_1/conv1_conv_1/BiasAdd", "StatefulPartitionedCall/dfew_classifier_1/resnet50_1/conv1_bn_1/batchnorm/mul"], "attr": {"T": {"type": "DT_FLOAT"}}}, {"name": "StatefulPartitionedCall/dfew_classifier_1/resnet50_1/conv1_bn_1/batchnorm/add_1", "op": "AddV2", "input": ["StatefulPartitionedCall/dfew_classifier_1/resnet50_1/conv1_bn_1/batchnorm/mul_1", "StatefulPartitionedCall/dfew_classifier_1/resnet50_1/conv1_bn_1/batchnorm/sub"], "attr": {"T": {"type": "DT_FLOAT"}}}, {"name": "StatefulPartitionedCall/dfew_classifier_1/resnet50_1/conv1_relu_1/Relu", "op": "Relu", "input": ["StatefulPartitionedCall/dfew_classifier_1/resnet50_1/conv1_bn_1/batchnorm/add_1"], "attr": {"T": {"type": "DT_FLOAT"}}}, {"name": "StatefulPartitionedCall/dfew_classifier_1/resnet50_1/pool1_pad_1/Pad", "op": "Pad", "input": ["StatefulPartitionedCall/dfew_classifier_1/resnet50_1/conv1_relu_1/Relu", "StatefulPartitionedCall/dfew_classifier_1/resnet50_1/pool1_pad_1/Const"], "attr": {"Tpaddings": {"type": "DT_INT32"}, "T": {"type": "DT_FLOAT"}}}, {"name": "StatefulPartitionedCall/dfew_classifier_1/resnet50_1/pool1_pool_1/MaxPool2d", "op": "MaxPool", "input": ["StatefulPartitionedCall/dfew_classifier_1/resnet50_1/pool1_pad_1/Pad"], "attr": {"padding": {"s": "VkFMSUQ="}, "data_format": {"s": "TkhXQw=="}, "T": {"type": "DT_FLOAT"}, "explicit_paddings": {"list": {}}, "ksize": {"list": {"i": ["1", "3", "3", "1"]}}, "strides": {"list": {"i": ["1", "2", "2", "1"]}}}}, {"name": "StatefulPartitionedCall/dfew_classifier_1/resnet50_1/conv2_block1_0_bn_1/batchnorm/mul_1", "op": "Conv2D", "input": ["StatefulPartitionedCall/dfew_classifier_1/resnet50_1/pool1_pool_1/MaxPool2d", "StatefulPartitionedCall/dfew_classifier_1/resnet50_1/conv2_block1_0_conv_1/convolution/merged_input"], "device": "/device:CPU:0", "attr": {"padding": {"s": "VkFMSUQ="}, "data_format": {"s": "TkhXQw=="}, "use_cudnn_on_gpu": {"b": true}, "strides": {"list": {"i": ["1", "1", "1", "1"]}}, "T": {"type": "DT_FLOAT"}, "explicit_paddings": {"list": {}}, "dilations": {"list": {"i": ["1", "1", "1", "1"]}}}}, {"name": "StatefulPartitionedCall/dfew_classifier_1/resnet50_1/conv2_block1_1_relu_1/Relu", "op": "_FusedConv2D", "input": ["StatefulPartitionedCall/dfew_classifier_1/resnet50_1/pool1_pool_1/MaxPool2d", "StatefulPartitionedCall/dfew_classifier_1/resnet50_1/conv2_block1_1_conv_1/convolution/merged_input", "StatefulPartitionedCall/dfew_classifier_1/resnet50_1/conv2_block1_1_bn_1/batchnorm/sub"], "device": "/device:CPU:0", "attr": {"num_host_args": {"i": "0"}, "data_format": {"s": "TkhXQw=="}, "filter_format": {"s": "SFdJTw=="}, "strides": {"list": {"i": ["1", "1", "1", "1"]}}, "num_args": {"i": "1"}, "fused_ops": {"list": {"s": ["Qmlhc0FkZA==", "UmVsdQ=="]}}, "TArgs": {"list": {"type": ["DT_FLOAT"]}}, "padding": {"s": "VkFMSUQ="}, "use_cudnn_on_gpu": {"b": true}, "leakyrelu_alpha": {"f": 0.2}, "epsilon": {"f": 0.0}, "T": {"type": "DT_FLOAT"}, "explicit_paddings": {"list": {}}, "dilations": {"list": {"i": ["1", "1", "1", "1"]}}}}, {"name": "StatefulPartitionedCall/dfew_classifier_1/resnet50_1/conv2_block1_2_relu_1/Relu", "op": "_FusedConv2D", "input": ["StatefulPartitionedCall/dfew_classifier_1/resnet50_1/conv2_block1_1_relu_1/Relu", "StatefulPartitionedCall/dfew_classifier_1/resnet50_1/conv2_block1_2_conv_1/convolution/merged_input", "StatefulPartitionedCall/dfew_classifier_1/resnet50_1/conv2_block1_2_bn_1/batchnorm/sub"], "device": "/device:CPU:0", "attr": {"num_host_args": {"i": "0"}, "data_format": {"s": "TkhXQw=="}, "filter_format": {"s": "SFdJTw=="}, "fused_ops": {"list": {"s": ["Qmlhc0FkZA==", "UmVsdQ=="]}}, "num_args": {"i": "1"}, "strides": {"list": {"i": ["1", "1", "1", "1"]}}, "TArgs": {"list": {"type": ["DT_FLOAT"]}}, "padding": {"s": "U0FNRQ=="}, "use_cudnn_on_gpu": {"b": true}, "leakyrelu_alpha": {"f": 0.2}, "epsilon": {"f": 0.0}, "T": {"type": "DT_FLOAT"}, "explicit_paddings": {"list": {}}, "dilations": {"list": {"i": ["1", "1", "1", "1"]}}}}, {"name": "StatefulPartitionedCall/dfew_classifier_1/resnet50_1/conv2_block1_3_bn_1/batchnorm/mul_1", "op": "Conv2D", "input": ["StatefulPartitionedCall/dfew_classifier_1/resnet50_1/conv2_block1_2_relu_1/Relu", "StatefulPartitionedCall/dfew_classifier_1/resnet50_1/conv2_block1_3_conv_1/convolution/merged_input"], "device": "/device:CPU:0", "attr": {"padding": {"s": "VkFMSUQ="}, "data_format": {"s": "TkhXQw=="}, "strides": {"list": {"i": ["1", "1", "1", "1"]}}, "use_cudnn_on_gpu": {"b": true}, "T": {"type": "DT_FLOAT"}, "explicit_paddings": {"list": {}}, "dilations": {"list": {"i": ["1", "1", "1", "1"]}}}}, {"name": "StatefulPartitionedCall/dfew_classifier_1/resnet50_1/conv2_block1_add_1/ArithmeticOptimizer/AddOpsRewrite_Leaf_1_Add", "op": "AddN", "input": ["StatefulPartitionedCall/dfew_classifier_1/resnet50_1/conv2_block1_0_bn_1/batchnorm/mul_1", "StatefulPartitionedCall/dfew_classifier_1/resnet50_1/conv2_block1_3_bn_1/batchnorm/mul_1"], "attr": {"N": {"i": "2"}, "T": {"type": "DT_FLOAT"}, "_grappler_ArithmeticOptimizer_AddOpsRewriteStage": {"b": true}}}, {"name": "StatefulPartitionedCall/dfew_classifier_1/resnet50_1/conv2_block1_add_1/ArithmeticOptimizer/AddOpsRewrite_Add", "op": "AddV2", "input": ["StatefulPartitionedCall/dfew_classifier_1/resnet50_1/conv2_block1_add_1/ArithmeticOptimizer/AddOpsRewrite_Leaf_0_Add", "StatefulPartitionedCall/dfew_classifier_1/resnet50_1/conv2_block1_add_1/ArithmeticOptimizer/AddOpsRewrite_Leaf_1_Add"], "attr": {"T": {"type": "DT_FLOAT"}, "_grappler_ArithmeticOptimizer_AddOpsRewriteStage": {"b": true}}}, {"name": "StatefulPartitionedCall/dfew_classifier_1/resnet50_1/conv2_block1_out_1/Relu", "op": "Relu", "input": ["StatefulPartitionedCall/dfew_classifier_1/resnet50_1/conv2_block1_add_1/ArithmeticOptimizer/AddOpsRewrite_Add"], "attr": {"T": {"type": "DT_FLOAT"}}}, {"name": "StatefulPartitionedCall/dfew_classifier_1/resnet50_1/conv2_block2_1_relu_1/Relu", "op": "_FusedConv2D", "input": ["StatefulPartitionedCall/dfew_classifier_1/resnet50_1/conv2_block1_out_1/Relu", "StatefulPartitionedCall/dfew_classifier_1/resnet50_1/conv2_block2_1_conv_1/convolution/merged_input", "StatefulPartitionedCall/dfew_classifier_1/resnet50_1/conv2_block2_1_bn_1/batchnorm/sub"], "device": "/device:CPU:0", "attr": {"num_host_args": {"i": "0"}, "data_format": {"s": "TkhXQw=="}, "filter_format": {"s": "SFdJTw=="}, "strides": {"list": {"i": ["1", "1", "1", "1"]}}, "num_args": {"i": "1"}, "fused_ops": {"list": {"s": ["Qmlhc0FkZA==", "UmVsdQ=="]}}, "TArgs": {"list": {"type": ["DT_FLOAT"]}}, "padding": {"s": "VkFMSUQ="}, "use_cudnn_on_gpu": {"b": true}, "leakyrelu_alpha": {"f": 0.2}, "epsilon": {"f": 0.0}, "T": {"type": "DT_FLOAT"}, "explicit_paddings": {"list": {}}, "dilations": {"list": {"i": ["1", "1", "1", "1"]}}}}, {"name": "StatefulPartitionedCall/dfew_classifier_1/resnet50_1/conv2_block2_2_relu_1/Relu", "op": "_FusedConv2D", "input": ["StatefulPartitionedCall/dfew_classifier_1/resnet50_1/conv2_block2_1_relu_1/Relu", "StatefulPartitionedCall/dfew_classifier_1/resnet50_1/conv2_block2_2_conv_1/convolution/merged_input", "StatefulPartitionedCall/dfew_classifier_1/resnet50_1/conv2_block2_2_bn_1/batchnorm/sub"], "device": "/device:CPU:0", "attr": {"num_host_args": {"i": "0"}, "data_format": {"s": "TkhXQw=="}, "filter_format": {"s": "SFdJTw=="}, "strides": {"list": {"i": ["1", "1", "1", "1"]}}, "num_args": {"i": "1"}, "fused_ops": {"list": {"s": ["Qmlhc0FkZA==", "UmVsdQ=="]}}, "TArgs": {"list": {"type": ["DT_FLOAT"]}}, "padding": {"s": "U0FNRQ=="}, "use_cudnn_on_gpu": {"b": true}, "leakyrelu_alpha": {"f": 0.2}, "epsilon": {"f": 0.0}, "T": {"type": "DT_FLOAT"}, "explicit_paddings": {"list": {}}, "dilations": {"list": {"i": ["1", "1", "1", "1"]}}}}, {"name": "StatefulPartitionedCall/dfew_classifier_1/resnet50_1/conv2_block2_3_bn_1/batchnorm/mul_1", "op": "Conv2D", "input": ["StatefulPartitionedCall/dfew_classifier_1/resnet50_1/conv2_block2_2_relu_1/Relu", "StatefulPartitionedCall/dfew_classifier_1/resnet50_1/conv2_block2_3_conv_1/convolution/merged_input"], "device": "/device:CPU:0", "attr": {"padding": {"s": "VkFMSUQ="}, "data_format": {"s": "TkhXQw=="}, "strides": {"list": {"i": ["1", "1", "1", "1"]}}, "use_cudnn_on_gpu": {"b": true}, "T": {"type": "DT_FLOAT"}, "explicit_paddings": {"list": {}}, "dilations": {"list": {"i": ["1", "1", "1", "1"]}}}}, {"name": "StatefulPartitionedCall/dfew_classifier_1/resnet50_1/conv2_block2_add_1/ArithmeticOptimizer/AddOpsRewrite_Leaf_1_Add", "op": "AddN", "input": ["StatefulPartitionedCall/dfew_classifier_1/resnet50_1/conv2_block1_out_1/Relu", "StatefulPartitionedCall/dfew_classifier_1/resnet50_1/conv2_block2_3_bn_1/batchnorm/mul_1"], "attr": {"N": {"i": "2"}, "T": {"type": "DT_FLOAT"}, "_grappler_ArithmeticOptimizer_AddOpsRewriteStage": {"b": true}}}, {"name": "StatefulPartitionedCall/dfew_classifier_1/resnet50_1/conv2_block2_add_1/ArithmeticOptimizer/AddOpsRewrite_Add", "op": "AddV2", "input": ["StatefulPartitionedCall/dfew_classifier_1/resnet50_1/conv2_block2_3_bn_1/batchnorm/sub", "StatefulPartitionedCall/dfew_classifier_1/resnet50_1/conv2_block2_add_1/ArithmeticOptimizer/AddOpsRewrite_Leaf_1_Add"], "attr": {"T": {"type": "DT_FLOAT"}, "_grappler_ArithmeticOptimizer_AddOpsRewriteStage": {"b": true}}}, {"name": "StatefulPartitionedCall/dfew_classifier_1/resnet50_1/conv2_block2_out_1/Relu", "op": "Relu", "input": ["StatefulPartitionedCall/dfew_classifier_1/resnet50_1/conv2_block2_add_1/ArithmeticOptimizer/AddOpsRewrite_Add"], "attr": {"T": {"type": "DT_FLOAT"}}}, {"name": "StatefulPartitionedCall/dfew_classifier_1/resnet50_1/conv2_block3_1_relu_1/Relu", "op": "_FusedConv2D", "input": ["StatefulPartitionedCall/dfew_classifier_1/resnet50_1/conv2_block2_out_1/Relu", "StatefulPartitionedCall/dfew_classifier_1/resnet50_1/conv2_block3_1_conv_1/convolution/merged_input", "StatefulPartitionedCall/dfew_classifier_1/resnet50_1/conv2_block3_1_bn_1/batchnorm/sub"], "device": "/device:CPU:0", "attr": {"num_host_args": {"i": "0"}, "data_format": {"s": "TkhXQw=="}, "filter_format": {"s": "SFdJTw=="}, "strides": {"list": {"i": ["1", "1", "1", "1"]}}, "num_args": {"i": "1"}, "fused_ops": {"list": {"s": ["Qmlhc0FkZA==", "UmVsdQ=="]}}, "TArgs": {"list": {"type": ["DT_FLOAT"]}}, "padding": {"s": "VkFMSUQ="}, "use_cudnn_on_gpu": {"b": true}, "leakyrelu_alpha": {"f": 0.2}, "epsilon": {"f": 0.0}, "T": {"type": "DT_FLOAT"}, "explicit_paddings": {"list": {}}, "dilations": {"list": {"i": ["1", "1", "1", "1"]}}}}, {"name": "StatefulPartitionedCall/dfew_classifier_1/resnet50_1/conv2_block3_2_relu_1/Relu", "op": "_FusedConv2D", "input": ["StatefulPartitionedCall/dfew_classifier_1/resnet50_1/conv2_block3_1_relu_1/Relu", "StatefulPartitionedCall/dfew_classifier_1/resnet50_1/conv2_block3_2_conv_1/convolution/merged_input", "StatefulPartitionedCall/dfew_classifier_1/resnet50_1/conv2_block3_2_bn_1/batchnorm/sub"], "device": "/device:CPU:0", "attr": {"num_host_args": {"i": "0"}, "data_format": {"s": "TkhXQw=="}, "filter_format": {"s": "SFdJTw=="}, "strides": {"list": {"i": ["1", "1", "1", "1"]}}, "num_args": {"i": "1"}, "fused_ops": {"list": {"s": ["Qmlhc0FkZA==", "UmVsdQ=="]}}, "TArgs": {"list": {"type": ["DT_FLOAT"]}}, "padding": {"s": "U0FNRQ=="}, "use_cudnn_on_gpu": {"b": true}, "leakyrelu_alpha": {"f": 0.2}, "epsilon": {"f": 0.0}, "T": {"type": "DT_FLOAT"}, "explicit_paddings": {"list": {}}, "dilations": {"list": {"i": ["1", "1", "1", "1"]}}}}, {"name": "StatefulPartitionedCall/dfew_classifier_1/resnet50_1/conv2_block3_3_bn_1/batchnorm/mul_1", "op": "Conv2D", "input": ["StatefulPartitionedCall/dfew_classifier_1/resnet50_1/conv2_block3_2_relu_1/Relu", "StatefulPartitionedCall/dfew_classifier_1/resnet50_1/conv2_block3_3_conv_1/convolution/merged_input"], "device": "/device:CPU:0", "attr": {"padding": {"s": "VkFMSUQ="}, "data_format": {"s": "TkhXQw=="}, "strides": {"list": {"i": ["1", "1", "1", "1"]}}, "use_cudnn_on_gpu": {"b": true}, "T": {"type": "DT_FLOAT"}, "explicit_paddings": {"list": {}}, "dilations": {"list": {"i": ["1", "1", "1", "1"]}}}}, {"name": "StatefulPartitionedCall/dfew_classifier_1/resnet50_1/conv2_block3_add_1/ArithmeticOptimizer/AddOpsRewrite_Leaf_1_Add", "op": "AddN", "input": ["StatefulPartitionedCall/dfew_classifier_1/resnet50_1/conv2_block2_out_1/Relu", "StatefulPartitionedCall/dfew_classifier_1/resnet50_1/conv2_block3_3_bn_1/batchnorm/mul_1"], "attr": {"N": {"i": "2"}, "T": {"type": "DT_FLOAT"}, "_grappler_ArithmeticOptimizer_AddOpsRewriteStage": {"b": true}}}, {"name": "StatefulPartitionedCall/dfew_classifier_1/resnet50_1/conv2_block3_add_1/ArithmeticOptimizer/AddOpsRewrite_Add", "op": "AddV2", "input": ["StatefulPartitionedCall/dfew_classifier_1/resnet50_1/conv2_block3_3_bn_1/batchnorm/sub", "StatefulPartitionedCall/dfew_classifier_1/resnet50_1/conv2_block3_add_1/ArithmeticOptimizer/AddOpsRewrite_Leaf_1_Add"], "attr": {"T": {"type": "DT_FLOAT"}, "_grappler_ArithmeticOptimizer_AddOpsRewriteStage": {"b": true}}}, {"name": "StatefulPartitionedCall/dfew_classifier_1/resnet50_1/conv2_block3_out_1/Relu", "op": "Relu", "input": ["StatefulPartitionedCall/dfew_classifier_1/resnet50_1/conv2_block3_add_1/ArithmeticOptimizer/AddOpsRewrite_Add"], "attr": {"T": {"type": "DT_FLOAT"}}}, {"name": "StatefulPartitionedCall/dfew_classifier_1/resnet50_1/conv3_block1_0_bn_1/batchnorm/mul_1", "op": "Conv2D", "input": ["StatefulPartitionedCall/dfew_classifier_1/resnet50_1/conv2_block3_out_1/Relu", "StatefulPartitionedCall/dfew_classifier_1/resnet50_1/conv3_block1_0_conv_1/convolution/merged_input"], "device": "/device:CPU:0", "attr": {"padding": {"s": "VkFMSUQ="}, "data_format": {"s": "TkhXQw=="}, "use_cudnn_on_gpu": {"b": true}, "strides": {"list": {"i": ["1", "2", "2", "1"]}}, "T": {"type": "DT_FLOAT"}, "explicit_paddings": {"list": {}}, "dilations": {"list": {"i": ["1", "1", "1", "1"]}}}}, {"name": "StatefulPartitionedCall/dfew_classifier_1/resnet50_1/conv3_block1_1_relu_1/Relu", "op": "_FusedConv2D", "input": ["StatefulPartitionedCall/dfew_classifier_1/resnet50_1/conv2_block3_out_1/Relu", "StatefulPartitionedCall/dfew_classifier_1/resnet50_1/conv3_block1_1_conv_1/convolution/merged_input", "StatefulPartitionedCall/dfew_classifier_1/resnet50_1/conv3_block1_1_bn_1/batchnorm/sub"], "device": "/device:CPU:0", "attr": {"num_host_args": {"i": "0"}, "data_format": {"s": "TkhXQw=="}, "filter_format": {"s": "SFdJTw=="}, "fused_ops": {"list": {"s": ["Qmlhc0FkZA==", "UmVsdQ=="]}}, "num_args": {"i": "1"}, "strides": {"list": {"i": ["1", "2", "2", "1"]}}, "TArgs": {"list": {"type": ["DT_FLOAT"]}}, "padding": {"s": "VkFMSUQ="}, "use_cudnn_on_gpu": {"b": true}, "leakyrelu_alpha": {"f": 0.2}, "epsilon": {"f": 0.0}, "T": {"type": "DT_FLOAT"}, "explicit_paddings": {"list": {}}, "dilations": {"list": {"i": ["1", "1", "1", "1"]}}}}, {"name": "StatefulPartitionedCall/dfew_classifier_1/resnet50_1/conv3_block1_2_relu_1/Relu", "op": "_FusedConv2D", "input": ["StatefulPartitionedCall/dfew_classifier_1/resnet50_1/conv3_block1_1_relu_1/Relu", "StatefulPartitionedCall/dfew_classifier_1/resnet50_1/conv3_block1_2_conv_1/convolution/merged_input", "StatefulPartitionedCall/dfew_classifier_1/resnet50_1/conv3_block1_2_bn_1/batchnorm/sub"], "device": "/device:CPU:0", "attr": {"num_host_args": {"i": "0"}, "data_format": {"s": "TkhXQw=="}, "filter_format": {"s": "SFdJTw=="}, "fused_ops": {"list": {"s": ["Qmlhc0FkZA==", "UmVsdQ=="]}}, "num_args": {"i": "1"}, "strides": {"list": {"i": ["1", "1", "1", "1"]}}, "TArgs": {"list": {"type": ["DT_FLOAT"]}}, "padding": {"s": "U0FNRQ=="}, "use_cudnn_on_gpu": {"b": true}, "leakyrelu_alpha": {"f": 0.2}, "epsilon": {"f": 0.0}, "T": {"type": "DT_FLOAT"}, "explicit_paddings": {"list": {}}, "dilations": {"list": {"i": ["1", "1", "1", "1"]}}}}, {"name": "StatefulPartitionedCall/dfew_classifier_1/resnet50_1/conv3_block1_3_bn_1/batchnorm/mul_1", "op": "Conv2D", "input": ["StatefulPartitionedCall/dfew_classifier_1/resnet50_1/conv3_block1_2_relu_1/Relu", "StatefulPartitionedCall/dfew_classifier_1/resnet50_1/conv3_block1_3_conv_1/convolution/merged_input"], "device": "/device:CPU:0", "attr": {"padding": {"s": "VkFMSUQ="}, "data_format": {"s": "TkhXQw=="}, "strides": {"list": {"i": ["1", "1", "1", "1"]}}, "use_cudnn_on_gpu": {"b": true}, "T": {"type": "DT_FLOAT"}, "explicit_paddings": {"list": {}}, "dilations": {"list": {"i": ["1", "1", "1", "1"]}}}}, {"name": "StatefulPartitionedCall/dfew_classifier_1/resnet50_1/conv3_block1_add_1/ArithmeticOptimizer/AddOpsRewrite_Leaf_1_Add", "op": "AddN", "input": ["StatefulPartitionedCall/dfew_classifier_1/resnet50_1/conv3_block1_0_bn_1/batchnorm/mul_1", "StatefulPartitionedCall/dfew_classifier_1/resnet50_1/conv3_block1_3_bn_1/batchnorm/mul_1"], "attr": {"N": {"i": "2"}, "T": {"type": "DT_FLOAT"}, "_grappler_ArithmeticOptimizer_AddOpsRewriteStage": {"b": true}}}, {"name": "StatefulPartitionedCall/dfew_classifier_1/resnet50_1/conv3_block1_add_1/ArithmeticOptimizer/AddOpsRewrite_Add", "op": "AddV2", "input": ["StatefulPartitionedCall/dfew_classifier_1/resnet50_1/conv3_block1_add_1/ArithmeticOptimizer/AddOpsRewrite_Leaf_0_Add", "StatefulPartitionedCall/dfew_classifier_1/resnet50_1/conv3_block1_add_1/ArithmeticOptimizer/AddOpsRewrite_Leaf_1_Add"], "attr": {"T": {"type": "DT_FLOAT"}, "_grappler_ArithmeticOptimizer_AddOpsRewriteStage": {"b": true}}}, {"name": "StatefulPartitionedCall/dfew_classifier_1/resnet50_1/conv3_block1_out_1/Relu", "op": "Relu", "input": ["StatefulPartitionedCall/dfew_classifier_1/resnet50_1/conv3_block1_add_1/ArithmeticOptimizer/AddOpsRewrite_Add"], "attr": {"T": {"type": "DT_FLOAT"}}}, {"name": "StatefulPartitionedCall/dfew_classifier_1/resnet50_1/conv3_block2_1_relu_1/Relu", "op": "_FusedConv2D", "input": ["StatefulPartitionedCall/dfew_classifier_1/resnet50_1/conv3_block1_out_1/Relu", "StatefulPartitionedCall/dfew_classifier_1/resnet50_1/conv3_block2_1_conv_1/convolution/merged_input", "StatefulPartitionedCall/dfew_classifier_1/resnet50_1/conv3_block2_1_bn_1/batchnorm/sub"], "device": "/device:CPU:0", "attr": {"num_host_args": {"i": "0"}, "data_format": {"s": "TkhXQw=="}, "filter_format": {"s": "SFdJTw=="}, "strides": {"list": {"i": ["1", "1", "1", "1"]}}, "num_args": {"i": "1"}, "fused_ops": {"list": {"s": ["Qmlhc0FkZA==", "UmVsdQ=="]}}, "TArgs": {"list": {"type": ["DT_FLOAT"]}}, "padding": {"s": "VkFMSUQ="}, "use_cudnn_on_gpu": {"b": true}, "leakyrelu_alpha": {"f": 0.2}, "epsilon": {"f": 0.0}, "T": {"type": "DT_FLOAT"}, "explicit_paddings": {"list": {}}, "dilations": {"list": {"i": ["1", "1", "1", "1"]}}}}, {"name": "StatefulPartitionedCall/dfew_classifier_1/resnet50_1/conv3_block2_2_relu_1/Relu", "op": "_FusedConv2D", "input": ["StatefulPartitionedCall/dfew_classifier_1/resnet50_1/conv3_block2_1_relu_1/Relu", "StatefulPartitionedCall/dfew_classifier_1/resnet50_1/conv3_block2_2_conv_1/convolution/merged_input", "StatefulPartitionedCall/dfew_classifier_1/resnet50_1/conv3_block2_2_bn_1/batchnorm/sub"], "device": "/device:CPU:0", "attr": {"num_host_args": {"i": "0"}, "data_format": {"s": "TkhXQw=="}, "filter_format": {"s": "SFdJTw=="}, "fused_ops": {"list": {"s": ["Qmlhc0FkZA==", "UmVsdQ=="]}}, "num_args": {"i": "1"}, "strides": {"list": {"i": ["1", "1", "1", "1"]}}, "TArgs": {"list": {"type": ["DT_FLOAT"]}}, "padding": {"s": "U0FNRQ=="}, "use_cudnn_on_gpu": {"b": true}, "leakyrelu_alpha": {"f": 0.2}, "epsilon": {"f": 0.0}, "T": {"type": "DT_FLOAT"}, "explicit_paddings": {"list": {}}, "dilations": {"list": {"i": ["1", "1", "1", "1"]}}}}, {"name": "StatefulPartitionedCall/dfew_classifier_1/resnet50_1/conv3_block2_3_bn_1/batchnorm/mul_1", "op": "Conv2D", "input": ["StatefulPartitionedCall/dfew_classifier_1/resnet50_1/conv3_block2_2_relu_1/Relu", "StatefulPartitionedCall/dfew_classifier_1/resnet50_1/conv3_block2_3_conv_1/convolution/merged_input"], "device": "/device:CPU:0", "attr": {"padding": {"s": "VkFMSUQ="}, "data_format": {"s": "TkhXQw=="}, "use_cudnn_on_gpu": {"b": true}, "strides": {"list": {"i": ["1", "1", "1", "1"]}}, "T": {"type": "DT_FLOAT"}, "explicit_paddings": {"list": {}}, "dilations": {"list": {"i": ["1", "1", "1", "1"]}}}}, {"name": "StatefulPartitionedCall/dfew_classifier_1/resnet50_1/conv3_block2_add_1/ArithmeticOptimizer/AddOpsRewrite_Leaf_1_Add", "op": "AddN", "input": ["StatefulPartitionedCall/dfew_classifier_1/resnet50_1/conv3_block1_out_1/Relu", "StatefulPartitionedCall/dfew_classifier_1/resnet50_1/conv3_block2_3_bn_1/batchnorm/mul_1"], "attr": {"N": {"i": "2"}, "T": {"type": "DT_FLOAT"}, "_grappler_ArithmeticOptimizer_AddOpsRewriteStage": {"b": true}}}, {"name": "StatefulPartitionedCall/dfew_classifier_1/resnet50_1/conv3_block2_add_1/ArithmeticOptimizer/AddOpsRewrite_Add", "op": "AddV2", "input": ["StatefulPartitionedCall/dfew_classifier_1/resnet50_1/conv3_block2_3_bn_1/batchnorm/sub", "StatefulPartitionedCall/dfew_classifier_1/resnet50_1/conv3_block2_add_1/ArithmeticOptimizer/AddOpsRewrite_Leaf_1_Add"], "attr": {"T": {"type": "DT_FLOAT"}, "_grappler_ArithmeticOptimizer_AddOpsRewriteStage": {"b": true}}}, {"name": "StatefulPartitionedCall/dfew_classifier_1/resnet50_1/conv3_block2_out_1/Relu", "op": "Relu", "input": ["StatefulPartitionedCall/dfew_classifier_1/resnet50_1/conv3_block2_add_1/ArithmeticOptimizer/AddOpsRewrite_Add"], "attr": {"T": {"type": "DT_FLOAT"}}}, {"name": "StatefulPartitionedCall/dfew_classifier_1/resnet50_1/conv3_block3_1_relu_1/Relu", "op": "_FusedConv2D", "input": ["StatefulPartitionedCall/dfew_classifier_1/resnet50_1/conv3_block2_out_1/Relu", "StatefulPartitionedCall/dfew_classifier_1/resnet50_1/conv3_block3_1_conv_1/convolution/merged_input", "StatefulPartitionedCall/dfew_classifier_1/resnet50_1/conv3_block3_1_bn_1/batchnorm/sub"], "device": "/device:CPU:0", "attr": {"num_host_args": {"i": "0"}, "data_format": {"s": "TkhXQw=="}, "filter_format": {"s": "SFdJTw=="}, "strides": {"list": {"i": ["1", "1", "1", "1"]}}, "num_args": {"i": "1"}, "fused_ops": {"list": {"s": ["Qmlhc0FkZA==", "UmVsdQ=="]}}, "TArgs": {"list": {"type": ["DT_FLOAT"]}}, "padding": {"s": "VkFMSUQ="}, "use_cudnn_on_gpu": {"b": true}, "leakyrelu_alpha": {"f": 0.2}, "epsilon": {"f": 0.0}, "T": {"type": "DT_FLOAT"}, "explicit_paddings": {"list": {}}, "dilations": {"list": {"i": ["1", "1", "1", "1"]}}}}, {"name": "StatefulPartitionedCall/dfew_classifier_1/resnet50_1/conv3_block3_2_relu_1/Relu", "op": "_FusedConv2D", "input": ["StatefulPartitionedCall/dfew_classifier_1/resnet50_1/conv3_block3_1_relu_1/Relu", "StatefulPartitionedCall/dfew_classifier_1/resnet50_1/conv3_block3_2_conv_1/convolution/merged_input", "StatefulPartitionedCall/dfew_classifier_1/resnet50_1/conv3_block3_2_bn_1/batchnorm/sub"], "device": "/device:CPU:0", "attr": {"num_host_args": {"i": "0"}, "data_format": {"s": "TkhXQw=="}, "filter_format": {"s": "SFdJTw=="}, "strides": {"list": {"i": ["1", "1", "1", "1"]}}, "num_args": {"i": "1"}, "fused_ops": {"list": {"s": ["Qmlhc0FkZA==", "UmVsdQ=="]}}, "TArgs": {"list": {"type": ["DT_FLOAT"]}}, "padding": {"s": "U0FNRQ=="}, "use_cudnn_on_gpu": {"b": true}, "leakyrelu_alpha": {"f": 0.2}, "epsilon": {"f": 0.0}, "T": {"type": "DT_FLOAT"}, "explicit_paddings": {"list": {}}, "dilations": {"list": {"i": ["1", "1", "1", "1"]}}}}, {"name": "StatefulPartitionedCall/dfew_classifier_1/resnet50_1/conv3_block3_3_bn_1/batchnorm/mul_1", "op": "Conv2D", "input": ["StatefulPartitionedCall/dfew_classifier_1/resnet50_1/conv3_block3_2_relu_1/Relu", "StatefulPartitionedCall/dfew_classifier_1/resnet50_1/conv3_block3_3_conv_1/convolution/merged_input"], "device": "/device:CPU:0", "attr": {"padding": {"s": "VkFMSUQ="}, "data_format": {"s": "TkhXQw=="}, "use_cudnn_on_gpu": {"b": true}, "strides": {"list": {"i": ["1", "1", "1", "1"]}}, "T": {"type": "DT_FLOAT"}, "explicit_paddings": {"list": {}}, "dilations": {"list": {"i": ["1", "1", "1", "1"]}}}}, {"name": "StatefulPartitionedCall/dfew_classifier_1/resnet50_1/conv3_block3_add_1/ArithmeticOptimizer/AddOpsRewrite_Leaf_1_Add", "op": "AddN", "input": ["StatefulPartitionedCall/dfew_classifier_1/resnet50_1/conv3_block2_out_1/Relu", "StatefulPartitionedCall/dfew_classifier_1/resnet50_1/conv3_block3_3_bn_1/batchnorm/mul_1"], "attr": {"N": {"i": "2"}, "T": {"type": "DT_FLOAT"}, "_grappler_ArithmeticOptimizer_AddOpsRewriteStage": {"b": true}}}, {"name": "StatefulPartitionedCall/dfew_classifier_1/resnet50_1/conv3_block3_add_1/ArithmeticOptimizer/AddOpsRewrite_Add", "op": "AddV2", "input": ["StatefulPartitionedCall/dfew_classifier_1/resnet50_1/conv3_block3_3_bn_1/batchnorm/sub", "StatefulPartitionedCall/dfew_classifier_1/resnet50_1/conv3_block3_add_1/ArithmeticOptimizer/AddOpsRewrite_Leaf_1_Add"], "attr": {"T": {"type": "DT_FLOAT"}, "_grappler_ArithmeticOptimizer_AddOpsRewriteStage": {"b": true}}}, {"name": "StatefulPartitionedCall/dfew_classifier_1/resnet50_1/conv3_block3_out_1/Relu", "op": "Relu", "input": ["StatefulPartitionedCall/dfew_classifier_1/resnet50_1/conv3_block3_add_1/ArithmeticOptimizer/AddOpsRewrite_Add"], "attr": {"T": {"type": "DT_FLOAT"}}}, {"name": "StatefulPartitionedCall/dfew_classifier_1/resnet50_1/conv3_block4_1_relu_1/Relu", "op": "_FusedConv2D", "input": ["StatefulPartitionedCall/dfew_classifier_1/resnet50_1/conv3_block3_out_1/Relu", "StatefulPartitionedCall/dfew_classifier_1/resnet50_1/conv3_block4_1_conv_1/convolution/merged_input", "StatefulPartitionedCall/dfew_classifier_1/resnet50_1/conv3_block4_1_bn_1/batchnorm/sub"], "device": "/device:CPU:0", "attr": {"num_host_args": {"i": "0"}, "data_format": {"s": "TkhXQw=="}, "filter_format": {"s": "SFdJTw=="}, "fused_ops": {"list": {"s": ["Qmlhc0FkZA==", "UmVsdQ=="]}}, "num_args": {"i": "1"}, "strides": {"list": {"i": ["1", "1", "1", "1"]}}, "TArgs": {"list": {"type": ["DT_FLOAT"]}}, "padding": {"s": "VkFMSUQ="}, "use_cudnn_on_gpu": {"b": true}, "leakyrelu_alpha": {"f": 0.2}, "epsilon": {"f": 0.0}, "T": {"type": "DT_FLOAT"}, "explicit_paddings": {"list": {}}, "dilations": {"list": {"i": ["1", "1", "1", "1"]}}}}, {"name": "StatefulPartitionedCall/dfew_classifier_1/resnet50_1/conv3_block4_2_relu_1/Relu", "op": "_FusedConv2D", "input": ["StatefulPartitionedCall/dfew_classifier_1/resnet50_1/conv3_block4_1_relu_1/Relu", "StatefulPartitionedCall/dfew_classifier_1/resnet50_1/conv3_block4_2_conv_1/convolution/merged_input", "StatefulPartitionedCall/dfew_classifier_1/resnet50_1/conv3_block4_2_bn_1/batchnorm/sub"], "device": "/device:CPU:0", "attr": {"num_host_args": {"i": "0"}, "data_format": {"s": "TkhXQw=="}, "filter_format": {"s": "SFdJTw=="}, "fused_ops": {"list": {"s": ["Qmlhc0FkZA==", "UmVsdQ=="]}}, "num_args": {"i": "1"}, "strides": {"list": {"i": ["1", "1", "1", "1"]}}, "TArgs": {"list": {"type": ["DT_FLOAT"]}}, "padding": {"s": "U0FNRQ=="}, "use_cudnn_on_gpu": {"b": true}, "leakyrelu_alpha": {"f": 0.2}, "epsilon": {"f": 0.0}, "T": {"type": "DT_FLOAT"}, "explicit_paddings": {"list": {}}, "dilations": {"list": {"i": ["1", "1", "1", "1"]}}}}, {"name": "StatefulPartitionedCall/dfew_classifier_1/resnet50_1/conv3_block4_3_bn_1/batchnorm/mul_1", "op": "Conv2D", "input": ["StatefulPartitionedCall/dfew_classifier_1/resnet50_1/conv3_block4_2_relu_1/Relu", "StatefulPartitionedCall/dfew_classifier_1/resnet50_1/conv3_block4_3_conv_1/convolution/merged_input"], "device": "/device:CPU:0", "attr": {"padding": {"s": "VkFMSUQ="}, "data_format": {"s": "TkhXQw=="}, "use_cudnn_on_gpu": {"b": true}, "strides": {"list": {"i": ["1", "1", "1", "1"]}}, "T": {"type": "DT_FLOAT"}, "explicit_paddings": {"list": {}}, "dilations": {"list": {"i": ["1", "1", "1", "1"]}}}}, {"name": "StatefulPartitionedCall/dfew_classifier_1/resnet50_1/conv3_block4_add_1/ArithmeticOptimizer/AddOpsRewrite_Leaf_1_Add", "op": "AddN", "input": ["StatefulPartitionedCall/dfew_classifier_1/resnet50_1/conv3_block3_out_1/Relu", "StatefulPartitionedCall/dfew_classifier_1/resnet50_1/conv3_block4_3_bn_1/batchnorm/mul_1"], "attr": {"N": {"i": "2"}, "T": {"type": "DT_FLOAT"}, "_grappler_ArithmeticOptimizer_AddOpsRewriteStage": {"b": true}}}, {"name": "StatefulPartitionedCall/dfew_classifier_1/resnet50_1/conv3_block4_add_1/ArithmeticOptimizer/AddOpsRewrite_Add", "op": "AddV2", "input": ["StatefulPartitionedCall/dfew_classifier_1/resnet50_1/conv3_block4_3_bn_1/batchnorm/sub", "StatefulPartitionedCall/dfew_classifier_1/resnet50_1/conv3_block4_add_1/ArithmeticOptimizer/AddOpsRewrite_Leaf_1_Add"], "attr": {"T": {"type": "DT_FLOAT"}, "_grappler_ArithmeticOptimizer_AddOpsRewriteStage": {"b": true}}}, {"name": "StatefulPartitionedCall/dfew_classifier_1/resnet50_1/conv3_block4_out_1/Relu", "op": "Relu", "input": ["StatefulPartitionedCall/dfew_classifier_1/resnet50_1/conv3_block4_add_1/ArithmeticOptimizer/AddOpsRewrite_Add"], "attr": {"T": {"type": "DT_FLOAT"}}}, {"name": "StatefulPartitionedCall/dfew_classifier_1/resnet50_1/conv4_block1_0_bn_1/batchnorm/mul_1", "op": "Conv2D", "input": ["StatefulPartitionedCall/dfew_classifier_1/resnet50_1/conv3_block4_out_1/Relu", "StatefulPartitionedCall/dfew_classifier_1/resnet50_1/conv4_block1_0_conv_1/convolution/merged_input"], "device": "/device:CPU:0", "attr": {"padding": {"s": "VkFMSUQ="}, "data_format": {"s": "TkhXQw=="}, "strides": {"list": {"i": ["1", "2", "2", "1"]}}, "use_cudnn_on_gpu": {"b": true}, "T": {"type": "DT_FLOAT"}, "explicit_paddings": {"list": {}}, "dilations": {"list": {"i": ["1", "1", "1", "1"]}}}}, {"name": "StatefulPartitionedCall/dfew_classifier_1/resnet50_1/conv4_block1_1_relu_1/Relu", "op": "_FusedConv2D", "input": ["StatefulPartitionedCall/dfew_classifier_1/resnet50_1/conv3_block4_out_1/Relu", "StatefulPartitionedCall/dfew_classifier_1/resnet50_1/conv4_block1_1_conv_1/convolution/merged_input", "StatefulPartitionedCall/dfew_classifier_1/resnet50_1/conv4_block1_1_bn_1/batchnorm/sub"], "device": "/device:CPU:0", "attr": {"num_host_args": {"i": "0"}, "data_format": {"s": "TkhXQw=="}, "filter_format": {"s": "SFdJTw=="}, "fused_ops": {"list": {"s": ["Qmlhc0FkZA==", "UmVsdQ=="]}}, "num_args": {"i": "1"}, "strides": {"list": {"i": ["1", "2", "2", "1"]}}, "TArgs": {"list": {"type": ["DT_FLOAT"]}}, "padding": {"s": "VkFMSUQ="}, "use_cudnn_on_gpu": {"b": true}, "leakyrelu_alpha": {"f": 0.2}, "epsilon": {"f": 0.0}, "T": {"type": "DT_FLOAT"}, "explicit_paddings": {"list": {}}, "dilations": {"list": {"i": ["1", "1", "1", "1"]}}}}, {"name": "StatefulPartitionedCall/dfew_classifier_1/resnet50_1/conv4_block1_2_relu_1/Relu", "op": "_FusedConv2D", "input": ["StatefulPartitionedCall/dfew_classifier_1/resnet50_1/conv4_block1_1_relu_1/Relu", "StatefulPartitionedCall/dfew_classifier_1/resnet50_1/conv4_block1_2_conv_1/convolution/merged_input", "StatefulPartitionedCall/dfew_classifier_1/resnet50_1/conv4_block1_2_bn_1/batchnorm/sub"], "device": "/device:CPU:0", "attr": {"num_host_args": {"i": "0"}, "data_format": {"s": "TkhXQw=="}, "filter_format": {"s": "SFdJTw=="}, "fused_ops": {"list": {"s": ["Qmlhc0FkZA==", "UmVsdQ=="]}}, "num_args": {"i": "1"}, "strides": {"list": {"i": ["1", "1", "1", "1"]}}, "TArgs": {"list": {"type": ["DT_FLOAT"]}}, "padding": {"s": "U0FNRQ=="}, "use_cudnn_on_gpu": {"b": true}, "leakyrelu_alpha": {"f": 0.2}, "epsilon": {"f": 0.0}, "T": {"type": "DT_FLOAT"}, "explicit_paddings": {"list": {}}, "dilations": {"list": {"i": ["1", "1", "1", "1"]}}}}, {"name": "StatefulPartitionedCall/dfew_classifier_1/resnet50_1/conv4_block1_3_bn_1/batchnorm/mul_1", "op": "Conv2D", "input": ["StatefulPartitionedCall/dfew_classifier_1/resnet50_1/conv4_block1_2_relu_1/Relu", "StatefulPartitionedCall/dfew_classifier_1/resnet50_1/conv4_block1_3_conv_1/convolution/merged_input"], "device": "/device:CPU:0", "attr": {"padding": {"s": "VkFMSUQ="}, "data_format": {"s": "TkhXQw=="}, "strides": {"list": {"i": ["1", "1", "1", "1"]}}, "use_cudnn_on_gpu": {"b": true}, "T": {"type": "DT_FLOAT"}, "explicit_paddings": {"list": {}}, "dilations": {"list": {"i": ["1", "1", "1", "1"]}}}}, {"name": "StatefulPartitionedCall/dfew_classifier_1/resnet50_1/conv4_block1_add_1/ArithmeticOptimizer/AddOpsRewrite_Leaf_1_Add", "op": "AddN", "input": ["StatefulPartitionedCall/dfew_classifier_1/resnet50_1/conv4_block1_0_bn_1/batchnorm/mul_1", "StatefulPartitionedCall/dfew_classifier_1/resnet50_1/conv4_block1_3_bn_1/batchnorm/mul_1"], "attr": {"N": {"i": "2"}, "T": {"type": "DT_FLOAT"}, "_grappler_ArithmeticOptimizer_AddOpsRewriteStage": {"b": true}}}, {"name": "StatefulPartitionedCall/dfew_classifier_1/resnet50_1/conv4_block1_add_1/ArithmeticOptimizer/AddOpsRewrite_Add", "op": "AddV2", "input": ["StatefulPartitionedCall/dfew_classifier_1/resnet50_1/conv4_block1_add_1/ArithmeticOptimizer/AddOpsRewrite_Leaf_0_Add", "StatefulPartitionedCall/dfew_classifier_1/resnet50_1/conv4_block1_add_1/ArithmeticOptimizer/AddOpsRewrite_Leaf_1_Add"], "attr": {"T": {"type": "DT_FLOAT"}, "_grappler_ArithmeticOptimizer_AddOpsRewriteStage": {"b": true}}}, {"name": "StatefulPartitionedCall/dfew_classifier_1/resnet50_1/conv4_block1_out_1/Relu", "op": "Relu", "input": ["StatefulPartitionedCall/dfew_classifier_1/resnet50_1/conv4_block1_add_1/ArithmeticOptimizer/AddOpsRewrite_Add"], "attr": {"T": {"type": "DT_FLOAT"}}}, {"name": "StatefulPartitionedCall/dfew_classifier_1/resnet50_1/conv4_block2_1_relu_1/Relu", "op": "_FusedConv2D", "input": ["StatefulPartitionedCall/dfew_classifier_1/resnet50_1/conv4_block1_out_1/Relu", "StatefulPartitionedCall/dfew_classifier_1/resnet50_1/conv4_block2_1_conv_1/convolution/merged_input", "StatefulPartitionedCall/dfew_classifier_1/resnet50_1/conv4_block2_1_bn_1/batchnorm/sub"], "device": "/device:CPU:0", "attr": {"num_host_args": {"i": "0"}, "data_format": {"s": "TkhXQw=="}, "filter_format": {"s": "SFdJTw=="}, "strides": {"list": {"i": ["1", "1", "1", "1"]}}, "num_args": {"i": "1"}, "fused_ops": {"list": {"s": ["Qmlhc0FkZA==", "UmVsdQ=="]}}, "TArgs": {"list": {"type": ["DT_FLOAT"]}}, "padding": {"s": "VkFMSUQ="}, "use_cudnn_on_gpu": {"b": true}, "leakyrelu_alpha": {"f": 0.2}, "epsilon": {"f": 0.0}, "T": {"type": "DT_FLOAT"}, "explicit_paddings": {"list": {}}, "dilations": {"list": {"i": ["1", "1", "1", "1"]}}}}, {"name": "StatefulPartitionedCall/dfew_classifier_1/resnet50_1/conv4_block2_2_relu_1/Relu", "op": "_FusedConv2D", "input": ["StatefulPartitionedCall/dfew_classifier_1/resnet50_1/conv4_block2_1_relu_1/Relu", "StatefulPartitionedCall/dfew_classifier_1/resnet50_1/conv4_block2_2_conv_1/convolution/merged_input", "StatefulPartitionedCall/dfew_classifier_1/resnet50_1/conv4_block2_2_bn_1/batchnorm/sub"], "device": "/device:CPU:0", "attr": {"num_host_args": {"i": "0"}, "data_format": {"s": "TkhXQw=="}, "filter_format": {"s": "SFdJTw=="}, "strides": {"list": {"i": ["1", "1", "1", "1"]}}, "num_args": {"i": "1"}, "fused_ops": {"list": {"s": ["Qmlhc0FkZA==", "UmVsdQ=="]}}, "TArgs": {"list": {"type": ["DT_FLOAT"]}}, "padding": {"s": "U0FNRQ=="}, "use_cudnn_on_gpu": {"b": true}, "leakyrelu_alpha": {"f": 0.2}, "epsilon": {"f": 0.0}, "T": {"type": "DT_FLOAT"}, "explicit_paddings": {"list": {}}, "dilations": {"list": {"i": ["1", "1", "1", "1"]}}}}, {"name": "StatefulPartitionedCall/dfew_classifier_1/resnet50_1/conv4_block2_3_bn_1/batchnorm/mul_1", "op": "Conv2D", "input": ["StatefulPartitionedCall/dfew_classifier_1/resnet50_1/conv4_block2_2_relu_1/Relu", "StatefulPartitionedCall/dfew_classifier_1/resnet50_1/conv4_block2_3_conv_1/convolution/merged_input"], "device": "/device:CPU:0", "attr": {"padding": {"s": "VkFMSUQ="}, "data_format": {"s": "TkhXQw=="}, "strides": {"list": {"i": ["1", "1", "1", "1"]}}, "use_cudnn_on_gpu": {"b": true}, "T": {"type": "DT_FLOAT"}, "explicit_paddings": {"list": {}}, "dilations": {"list": {"i": ["1", "1", "1", "1"]}}}}, {"name": "StatefulPartitionedCall/dfew_classifier_1/resnet50_1/conv4_block2_add_1/ArithmeticOptimizer/AddOpsRewrite_Leaf_1_Add", "op": "AddN", "input": ["StatefulPartitionedCall/dfew_classifier_1/resnet50_1/conv4_block1_out_1/Relu", "StatefulPartitionedCall/dfew_classifier_1/resnet50_1/conv4_block2_3_bn_1/batchnorm/mul_1"], "attr": {"N": {"i": "2"}, "T": {"type": "DT_FLOAT"}, "_grappler_ArithmeticOptimizer_AddOpsRewriteStage": {"b": true}}}, {"name": "StatefulPartitionedCall/dfew_classifier_1/resnet50_1/conv4_block2_add_1/ArithmeticOptimizer/AddOpsRewrite_Add", "op": "AddV2", "input": ["StatefulPartitionedCall/dfew_classifier_1/resnet50_1/conv4_block2_3_bn_1/batchnorm/sub", "StatefulPartitionedCall/dfew_classifier_1/resnet50_1/conv4_block2_add_1/ArithmeticOptimizer/AddOpsRewrite_Leaf_1_Add"], "attr": {"T": {"type": "DT_FLOAT"}, "_grappler_ArithmeticOptimizer_AddOpsRewriteStage": {"b": true}}}, {"name": "StatefulPartitionedCall/dfew_classifier_1/resnet50_1/conv4_block2_out_1/Relu", "op": "Relu", "input": ["StatefulPartitionedCall/dfew_classifier_1/resnet50_1/conv4_block2_add_1/ArithmeticOptimizer/AddOpsRewrite_Add"], "attr": {"T": {"type": "DT_FLOAT"}}}, {"name": "StatefulPartitionedCall/dfew_classifier_1/resnet50_1/conv4_block3_1_relu_1/Relu", "op": "_FusedConv2D", "input": ["StatefulPartitionedCall/dfew_classifier_1/resnet50_1/conv4_block2_out_1/Relu", "StatefulPartitionedCall/dfew_classifier_1/resnet50_1/conv4_block3_1_conv_1/convolution/merged_input", "StatefulPartitionedCall/dfew_classifier_1/resnet50_1/conv4_block3_1_bn_1/batchnorm/sub"], "device": "/device:CPU:0", "attr": {"num_host_args": {"i": "0"}, "data_format": {"s": "TkhXQw=="}, "filter_format": {"s": "SFdJTw=="}, "fused_ops": {"list": {"s": ["Qmlhc0FkZA==", "UmVsdQ=="]}}, "num_args": {"i": "1"}, "strides": {"list": {"i": ["1", "1", "1", "1"]}}, "TArgs": {"list": {"type": ["DT_FLOAT"]}}, "padding": {"s": "VkFMSUQ="}, "use_cudnn_on_gpu": {"b": true}, "leakyrelu_alpha": {"f": 0.2}, "epsilon": {"f": 0.0}, "T": {"type": "DT_FLOAT"}, "explicit_paddings": {"list": {}}, "dilations": {"list": {"i": ["1", "1", "1", "1"]}}}}, {"name": "StatefulPartitionedCall/dfew_classifier_1/resnet50_1/conv4_block3_2_relu_1/Relu", "op": "_FusedConv2D", "input": ["StatefulPartitionedCall/dfew_classifier_1/resnet50_1/conv4_block3_1_relu_1/Relu", "StatefulPartitionedCall/dfew_classifier_1/resnet50_1/conv4_block3_2_conv_1/convolution/merged_input", "StatefulPartitionedCall/dfew_classifier_1/resnet50_1/conv4_block3_2_bn_1/batchnorm/sub"], "device": "/device:CPU:0", "attr": {"num_host_args": {"i": "0"}, "data_format": {"s": "TkhXQw=="}, "filter_format": {"s": "SFdJTw=="}, "fused_ops": {"list": {"s": ["Qmlhc0FkZA==", "UmVsdQ=="]}}, "num_args": {"i": "1"}, "strides": {"list": {"i": ["1", "1", "1", "1"]}}, "TArgs": {"list": {"type": ["DT_FLOAT"]}}, "padding": {"s": "U0FNRQ=="}, "use_cudnn_on_gpu": {"b": true}, "leakyrelu_alpha": {"f": 0.2}, "epsilon": {"f": 0.0}, "T": {"type": "DT_FLOAT"}, "explicit_paddings": {"list": {}}, "dilations": {"list": {"i": ["1", "1", "1", "1"]}}}}, {"name": "StatefulPartitionedCall/dfew_classifier_1/resnet50_1/conv4_block3_3_bn_1/batchnorm/mul_1", "op": "Conv2D", "input": ["StatefulPartitionedCall/dfew_classifier_1/resnet50_1/conv4_block3_2_relu_1/Relu", "StatefulPartitionedCall/dfew_classifier_1/resnet50_1/conv4_block3_3_conv_1/convolution/merged_input"], "device": "/device:CPU:0", "attr": {"padding": {"s": "VkFMSUQ="}, "data_format": {"s": "TkhXQw=="}, "strides": {"list": {"i": ["1", "1", "1", "1"]}}, "use_cudnn_on_gpu": {"b": true}, "T": {"type": "DT_FLOAT"}, "explicit_paddings": {"list": {}}, "dilations": {"list": {"i": ["1", "1", "1", "1"]}}}}, {"name": "StatefulPartitionedCall/dfew_classifier_1/resnet50_1/conv4_block3_add_1/ArithmeticOptimizer/AddOpsRewrite_Leaf_1_Add", "op": "AddN", "input": ["StatefulPartitionedCall/dfew_classifier_1/resnet50_1/conv4_block2_out_1/Relu", "StatefulPartitionedCall/dfew_classifier_1/resnet50_1/conv4_block3_3_bn_1/batchnorm/mul_1"], "attr": {"N": {"i": "2"}, "T": {"type": "DT_FLOAT"}, "_grappler_ArithmeticOptimizer_AddOpsRewriteStage": {"b": true}}}, {"name": "StatefulPartitionedCall/dfew_classifier_1/resnet50_1/conv4_block3_add_1/ArithmeticOptimizer/AddOpsRewrite_Add", "op": "AddV2", "input": ["StatefulPartitionedCall/dfew_classifier_1/resnet50_1/conv4_block3_3_bn_1/batchnorm/sub", "StatefulPartitionedCall/dfew_classifier_1/resnet50_1/conv4_block3_add_1/ArithmeticOptimizer/AddOpsRewrite_Leaf_1_Add"], "attr": {"T": {"type": "DT_FLOAT"}, "_grappler_ArithmeticOptimizer_AddOpsRewriteStage": {"b": true}}}, {"name": "StatefulPartitionedCall/dfew_classifier_1/resnet50_1/conv4_block3_out_1/Relu", "op": "Relu", "input": ["StatefulPartitionedCall/dfew_classifier_1/resnet50_1/conv4_block3_add_1/ArithmeticOptimizer/AddOpsRewrite_Add"], "attr": {"T": {"type": "DT_FLOAT"}}}, {"name": "StatefulPartitionedCall/dfew_classifier_1/resnet50_1/conv4_block4_1_relu_1/Relu", "op": "_FusedConv2D", "input": ["StatefulPartitionedCall/dfew_classifier_1/resnet50_1/conv4_block3_out_1/Relu", "StatefulPartitionedCall/dfew_classifier_1/resnet50_1/conv4_block4_1_conv_1/convolution/merged_input", "StatefulPartitionedCall/dfew_classifier_1/resnet50_1/conv4_block4_1_bn_1/batchnorm/sub"], "device": "/device:CPU:0", "attr": {"num_host_args": {"i": "0"}, "data_format": {"s": "TkhXQw=="}, "filter_format": {"s": "SFdJTw=="}, "fused_ops": {"list": {"s": ["Qmlhc0FkZA==", "UmVsdQ=="]}}, "num_args": {"i": "1"}, "strides": {"list": {"i": ["1", "1", "1", "1"]}}, "TArgs": {"list": {"type": ["DT_FLOAT"]}}, "padding": {"s": "VkFMSUQ="}, "use_cudnn_on_gpu": {"b": true}, "leakyrelu_alpha": {"f": 0.2}, "epsilon": {"f": 0.0}, "T": {"type": "DT_FLOAT"}, "explicit_paddings": {"list": {}}, "dilations": {"list": {"i": ["1", "1", "1", "1"]}}}}, {"name": "StatefulPartitionedCall/dfew_classifier_1/resnet50_1/conv4_block4_2_relu_1/Relu", "op": "_FusedConv2D", "input": ["StatefulPartitionedCall/dfew_classifier_1/resnet50_1/conv4_block4_1_relu_1/Relu", "StatefulPartitionedCall/dfew_classifier_1/resnet50_1/conv4_block4_2_conv_1/convolution/merged_input", "StatefulPartitionedCall/dfew_classifier_1/resnet50_1/conv4_block4_2_bn_1/batchnorm/sub"], "device": "/device:CPU:0", "attr": {"num_host_args": {"i": "0"}, "data_format": {"s": "TkhXQw=="}, "filter_format": {"s": "SFdJTw=="}, "fused_ops": {"list": {"s": ["Qmlhc0FkZA==", "UmVsdQ=="]}}, "num_args": {"i": "1"}, "strides": {"list": {"i": ["1", "1", "1", "1"]}}, "TArgs": {"list": {"type": ["DT_FLOAT"]}}, "padding": {"s": "U0FNRQ=="}, "use_cudnn_on_gpu": {"b": true}, "leakyrelu_alpha": {"f": 0.2}, "epsilon": {"f": 0.0}, "T": {"type": "DT_FLOAT"}, "explicit_paddings": {"list": {}}, "dilations": {"list": {"i": ["1", "1", "1", "1"]}}}}, {"name": "StatefulPartitionedCall/dfew_classifier_1/resnet50_1/conv4_block4_3_bn_1/batchnorm/mul_1", "op": "Conv2D", "input": ["StatefulPartitionedCall/dfew_classifier_1/resnet50_1/conv4_block4_2_relu_1/Relu", "StatefulPartitionedCall/dfew_classifier_1/resnet50_1/conv4_block4_3_conv_1/convolution/merged_input"], "device": "/device:CPU:0", "attr": {"padding": {"s": "VkFMSUQ="}, "data_format": {"s": "TkhXQw=="}, "use_cudnn_on_gpu": {"b": true}, "strides": {"list": {"i": ["1", "1", "1", "1"]}}, "T": {"type": "DT_FLOAT"}, "explicit_paddings": {"list": {}}, "dilations": {"list": {"i": ["1", "1", "1", "1"]}}}}, {"name": "StatefulPartitionedCall/dfew_classifier_1/resnet50_1/conv4_block4_add_1/ArithmeticOptimizer/AddOpsRewrite_Leaf_1_Add", "op": "AddN", "input": ["StatefulPartitionedCall/dfew_classifier_1/resnet50_1/conv4_block3_out_1/Relu", "StatefulPartitionedCall/dfew_classifier_1/resnet50_1/conv4_block4_3_bn_1/batchnorm/mul_1"], "attr": {"N": {"i": "2"}, "T": {"type": "DT_FLOAT"}, "_grappler_ArithmeticOptimizer_AddOpsRewriteStage": {"b": true}}}, {"name": "StatefulPartitionedCall/dfew_classifier_1/resnet50_1/conv4_block4_add_1/ArithmeticOptimizer/AddOpsRewrite_Add", "op": "AddV2", "input": ["StatefulPartitionedCall/dfew_classifier_1/resnet50_1/conv4_block4_3_bn_1/batchnorm/sub", "StatefulPartitionedCall/dfew_classifier_1/resnet50_1/conv4_block4_add_1/ArithmeticOptimizer/AddOpsRewrite_Leaf_1_Add"], "attr": {"T": {"type": "DT_FLOAT"}, "_grappler_ArithmeticOptimizer_AddOpsRewriteStage": {"b": true}}}, {"name": "StatefulPartitionedCall/dfew_classifier_1/resnet50_1/conv4_block4_out_1/Relu", "op": "Relu", "input": ["StatefulPartitionedCall/dfew_classifier_1/resnet50_1/conv4_block4_add_1/ArithmeticOptimizer/AddOpsRewrite_Add"], "attr": {"T": {"type": "DT_FLOAT"}}}, {"name": "StatefulPartitionedCall/dfew_classifier_1/resnet50_1/conv4_block5_1_relu_1/Relu", "op": "_FusedConv2D", "input": ["StatefulPartitionedCall/dfew_classifier_1/resnet50_1/conv4_block4_out_1/Relu", "StatefulPartitionedCall/dfew_classifier_1/resnet50_1/conv4_block5_1_conv_1/convolution/merged_input", "StatefulPartitionedCall/dfew_classifier_1/resnet50_1/conv4_block5_1_bn_1/batchnorm/sub"], "device": "/device:CPU:0", "attr": {"num_host_args": {"i": "0"}, "data_format": {"s": "TkhXQw=="}, "filter_format": {"s": "SFdJTw=="}, "fused_ops": {"list": {"s": ["Qmlhc0FkZA==", "UmVsdQ=="]}}, "num_args": {"i": "1"}, "strides": {"list": {"i": ["1", "1", "1", "1"]}}, "TArgs": {"list": {"type": ["DT_FLOAT"]}}, "padding": {"s": "VkFMSUQ="}, "use_cudnn_on_gpu": {"b": true}, "leakyrelu_alpha": {"f": 0.2}, "epsilon": {"f": 0.0}, "T": {"type": "DT_FLOAT"}, "explicit_paddings": {"list": {}}, "dilations": {"list": {"i": ["1", "1", "1", "1"]}}}}, {"name": "StatefulPartitionedCall/dfew_classifier_1/resnet50_1/conv4_block5_2_relu_1/Relu", "op": "_FusedConv2D", "input": ["StatefulPartitionedCall/dfew_classifier_1/resnet50_1/conv4_block5_1_relu_1/Relu", "StatefulPartitionedCall/dfew_classifier_1/resnet50_1/conv4_block5_2_conv_1/convolution/merged_input", "StatefulPartitionedCall/dfew_classifier_1/resnet50_1/conv4_block5_2_bn_1/batchnorm/sub"], "device": "/device:CPU:0", "attr": {"num_host_args": {"i": "0"}, "data_format": {"s": "TkhXQw=="}, "filter_format": {"s": "SFdJTw=="}, "fused_ops": {"list": {"s": ["Qmlhc0FkZA==", "UmVsdQ=="]}}, "num_args": {"i": "1"}, "strides": {"list": {"i": ["1", "1", "1", "1"]}}, "TArgs": {"list": {"type": ["DT_FLOAT"]}}, "padding": {"s": "U0FNRQ=="}, "use_cudnn_on_gpu": {"b": true}, "leakyrelu_alpha": {"f": 0.2}, "epsilon": {"f": 0.0}, "T": {"type": "DT_FLOAT"}, "explicit_paddings": {"list": {}}, "dilations": {"list": {"i": ["1", "1", "1", "1"]}}}}, {"name": "StatefulPartitionedCall/dfew_classifier_1/resnet50_1/conv4_block5_3_bn_1/batchnorm/mul_1", "op": "Conv2D", "input": ["StatefulPartitionedCall/dfew_classifier_1/resnet50_1/conv4_block5_2_relu_1/Relu", "StatefulPartitionedCall/dfew_classifier_1/resnet50_1/conv4_block5_3_conv_1/convolution/merged_input"], "device": "/device:CPU:0", "attr": {"padding": {"s": "VkFMSUQ="}, "data_format": {"s": "TkhXQw=="}, "use_cudnn_on_gpu": {"b": true}, "strides": {"list": {"i": ["1", "1", "1", "1"]}}, "T": {"type": "DT_FLOAT"}, "explicit_paddings": {"list": {}}, "dilations": {"list": {"i": ["1", "1", "1", "1"]}}}}, {"name": "StatefulPartitionedCall/dfew_classifier_1/resnet50_1/conv4_block5_add_1/ArithmeticOptimizer/AddOpsRewrite_Leaf_1_Add", "op": "AddN", "input": ["StatefulPartitionedCall/dfew_classifier_1/resnet50_1/conv4_block4_out_1/Relu", "StatefulPartitionedCall/dfew_classifier_1/resnet50_1/conv4_block5_3_bn_1/batchnorm/mul_1"], "attr": {"N": {"i": "2"}, "T": {"type": "DT_FLOAT"}, "_grappler_ArithmeticOptimizer_AddOpsRewriteStage": {"b": true}}}, {"name": "StatefulPartitionedCall/dfew_classifier_1/resnet50_1/conv4_block5_add_1/ArithmeticOptimizer/AddOpsRewrite_Add", "op": "AddV2", "input": ["StatefulPartitionedCall/dfew_classifier_1/resnet50_1/conv4_block5_3_bn_1/batchnorm/sub", "StatefulPartitionedCall/dfew_classifier_1/resnet50_1/conv4_block5_add_1/ArithmeticOptimizer/AddOpsRewrite_Leaf_1_Add"], "attr": {"T": {"type": "DT_FLOAT"}, "_grappler_ArithmeticOptimizer_AddOpsRewriteStage": {"b": true}}}, {"name": "StatefulPartitionedCall/dfew_classifier_1/resnet50_1/conv4_block5_out_1/Relu", "op": "Relu", "input": ["StatefulPartitionedCall/dfew_classifier_1/resnet50_1/conv4_block5_add_1/ArithmeticOptimizer/AddOpsRewrite_Add"], "attr": {"T": {"type": "DT_FLOAT"}}}, {"name": "StatefulPartitionedCall/dfew_classifier_1/resnet50_1/conv4_block6_1_relu_1/Relu", "op": "_FusedConv2D", "input": ["StatefulPartitionedCall/dfew_classifier_1/resnet50_1/conv4_block5_out_1/Relu", "StatefulPartitionedCall/dfew_classifier_1/resnet50_1/conv4_block6_1_conv_1/convolution/merged_input", "StatefulPartitionedCall/dfew_classifier_1/resnet50_1/conv4_block6_1_bn_1/batchnorm/sub"], "device": "/device:CPU:0", "attr": {"num_host_args": {"i": "0"}, "data_format": {"s": "TkhXQw=="}, "filter_format": {"s": "SFdJTw=="}, "fused_ops": {"list": {"s": ["Qmlhc0FkZA==", "UmVsdQ=="]}}, "num_args": {"i": "1"}, "strides": {"list": {"i": ["1", "1", "1", "1"]}}, "TArgs": {"list": {"type": ["DT_FLOAT"]}}, "padding": {"s": "VkFMSUQ="}, "use_cudnn_on_gpu": {"b": true}, "leakyrelu_alpha": {"f": 0.2}, "epsilon": {"f": 0.0}, "T": {"type": "DT_FLOAT"}, "explicit_paddings": {"list": {}}, "dilations": {"list": {"i": ["1", "1", "1", "1"]}}}}, {"name": "StatefulPartitionedCall/dfew_classifier_1/resnet50_1/conv4_block6_2_relu_1/Relu", "op": "_FusedConv2D", "input": ["StatefulPartitionedCall/dfew_classifier_1/resnet50_1/conv4_block6_1_relu_1/Relu", "StatefulPartitionedCall/dfew_classifier_1/resnet50_1/conv4_block6_2_conv_1/convolution/merged_input", "StatefulPartitionedCall/dfew_classifier_1/resnet50_1/conv4_block6_2_bn_1/batchnorm/sub"], "device": "/device:CPU:0", "attr": {"num_host_args": {"i": "0"}, "data_format": {"s": "TkhXQw=="}, "filter_format": {"s": "SFdJTw=="}, "strides": {"list": {"i": ["1", "1", "1", "1"]}}, "num_args": {"i": "1"}, "fused_ops": {"list": {"s": ["Qmlhc0FkZA==", "UmVsdQ=="]}}, "TArgs": {"list": {"type": ["DT_FLOAT"]}}, "padding": {"s": "U0FNRQ=="}, "use_cudnn_on_gpu": {"b": true}, "leakyrelu_alpha": {"f": 0.2}, "epsilon": {"f": 0.0}, "T": {"type": "DT_FLOAT"}, "explicit_paddings": {"list": {}}, "dilations": {"list": {"i": ["1", "1", "1", "1"]}}}}, {"name": "StatefulPartitionedCall/dfew_classifier_1/resnet50_1/conv4_block6_3_bn_1/batchnorm/mul_1", "op": "Conv2D", "input": ["StatefulPartitionedCall/dfew_classifier_1/resnet50_1/conv4_block6_2_relu_1/Relu", "StatefulPartitionedCall/dfew_classifier_1/resnet50_1/conv4_block6_3_conv_1/convolution/merged_input"], "device": "/device:CPU:0", "attr": {"padding": {"s": "VkFMSUQ="}, "data_format": {"s": "TkhXQw=="}, "use_cudnn_on_gpu": {"b": true}, "strides": {"list": {"i": ["1", "1", "1", "1"]}}, "T": {"type": "DT_FLOAT"}, "explicit_paddings": {"list": {}}, "dilations": {"list": {"i": ["1", "1", "1", "1"]}}}}, {"name": "StatefulPartitionedCall/dfew_classifier_1/resnet50_1/conv4_block6_add_1/ArithmeticOptimizer/AddOpsRewrite_Leaf_1_Add", "op": "AddN", "input": ["StatefulPartitionedCall/dfew_classifier_1/resnet50_1/conv4_block5_out_1/Relu", "StatefulPartitionedCall/dfew_classifier_1/resnet50_1/conv4_block6_3_bn_1/batchnorm/mul_1"], "attr": {"N": {"i": "2"}, "T": {"type": "DT_FLOAT"}, "_grappler_ArithmeticOptimizer_AddOpsRewriteStage": {"b": true}}}, {"name": "StatefulPartitionedCall/dfew_classifier_1/resnet50_1/conv4_block6_add_1/ArithmeticOptimizer/AddOpsRewrite_Add", "op": "AddV2", "input": ["StatefulPartitionedCall/dfew_classifier_1/resnet50_1/conv4_block6_3_bn_1/batchnorm/sub", "StatefulPartitionedCall/dfew_classifier_1/resnet50_1/conv4_block6_add_1/ArithmeticOptimizer/AddOpsRewrite_Leaf_1_Add"], "attr": {"T": {"type": "DT_FLOAT"}, "_grappler_ArithmeticOptimizer_AddOpsRewriteStage": {"b": true}}}, {"name": "StatefulPartitionedCall/dfew_classifier_1/resnet50_1/conv4_block6_out_1/Relu", "op": "Relu", "input": ["StatefulPartitionedCall/dfew_classifier_1/resnet50_1/conv4_block6_add_1/ArithmeticOptimizer/AddOpsRewrite_Add"], "attr": {"T": {"type": "DT_FLOAT"}}}, {"name": "StatefulPartitionedCall/dfew_classifier_1/resnet50_1/conv5_block1_1_relu_1/Relu", "op": "_FusedConv2D", "input": ["StatefulPartitionedCall/dfew_classifier_1/resnet50_1/conv4_block6_out_1/Relu", "StatefulPartitionedCall/dfew_classifier_1/resnet50_1/conv5_block1_1_conv_1/convolution/merged_input", "StatefulPartitionedCall/dfew_classifier_1/resnet50_1/conv5_block1_1_bn_1/batchnorm/sub"], "device": "/device:CPU:0", "attr": {"num_host_args": {"i": "0"}, "data_format": {"s": "TkhXQw=="}, "filter_format": {"s": "SFdJTw=="}, "strides": {"list": {"i": ["1", "2", "2", "1"]}}, "num_args": {"i": "1"}, "fused_ops": {"list": {"s": ["Qmlhc0FkZA==", "UmVsdQ=="]}}, "TArgs": {"list": {"type": ["DT_FLOAT"]}}, "padding": {"s": "VkFMSUQ="}, "use_cudnn_on_gpu": {"b": true}, "leakyrelu_alpha": {"f": 0.2}, "epsilon": {"f": 0.0}, "T": {"type": "DT_FLOAT"}, "explicit_paddings": {"list": {}}, "dilations": {"list": {"i": ["1", "1", "1", "1"]}}}}, {"name": "StatefulPartitionedCall/dfew_classifier_1/resnet50_1/conv5_block1_0_conv_1/BiasAdd", "op": "_FusedConv2D", "input": ["StatefulPartitionedCall/dfew_classifier_1/resnet50_1/conv4_block6_out_1/Relu", "StatefulPartitionedCall/dfew_classifier_1/resnet50_1/conv5_block1_0_conv_1/convolution/ReadVariableOp", "StatefulPartitionedCall/dfew_classifier_1/resnet50_1/conv5_block1_0_conv_1/Squeeze"], "device": "/device:CPU:0", "attr": {"num_host_args": {"i": "0"}, "data_format": {"s": "TkhXQw=="}, "filter_format": {"s": "SFdJTw=="}, "fused_ops": {"list": {"s": ["Qmlhc0FkZA=="]}}, "num_args": {"i": "1"}, "strides": {"list": {"i": ["1", "2", "2", "1"]}}, "TArgs": {"list": {"type": ["DT_FLOAT"]}}, "padding": {"s": "VkFMSUQ="}, "use_cudnn_on_gpu": {"b": true}, "leakyrelu_alpha": {"f": 0.2}, "epsilon": {"f": 0.0}, "T": {"type": "DT_FLOAT"}, "explicit_paddings": {"list": {}}, "dilations": {"list": {"i": ["1", "1", "1", "1"]}}}}, {"name": "StatefulPartitionedCall/dfew_classifier_1/resnet50_1/conv5_block1_2_conv_1/BiasAdd", "op": "_FusedConv2D", "input": ["StatefulPartitionedCall/dfew_classifier_1/resnet50_1/conv5_block1_1_relu_1/Relu", "StatefulPartitionedCall/dfew_classifier_1/resnet50_1/conv5_block1_2_conv_1/convolution/ReadVariableOp", "StatefulPartitionedCall/dfew_classifier_1/resnet50_1/conv5_block1_2_conv_1/Squeeze"], "device": "/device:CPU:0", "attr": {"num_host_args": {"i": "0"}, "data_format": {"s": "TkhXQw=="}, "filter_format": {"s": "SFdJTw=="}, "fused_ops": {"list": {"s": ["Qmlhc0FkZA=="]}}, "num_args": {"i": "1"}, "strides": {"list": {"i": ["1", "1", "1", "1"]}}, "TArgs": {"list": {"type": ["DT_FLOAT"]}}, "padding": {"s": "U0FNRQ=="}, "use_cudnn_on_gpu": {"b": true}, "leakyrelu_alpha": {"f": 0.2}, "epsilon": {"f": 0.0}, "T": {"type": "DT_FLOAT"}, "explicit_paddings": {"list": {}}, "dilations": {"list": {"i": ["1", "1", "1", "1"]}}}}, {"name": "StatefulPartitionedCall/dfew_classifier_1/resnet50_1/conv5_block1_0_bn_1/batchnorm/mul_1", "op": "Mul", "input": ["StatefulPartitionedCall/dfew_classifier_1/resnet50_1/conv5_block1_0_conv_1/BiasAdd", "StatefulPartitionedCall/dfew_classifier_1/resnet50_1/conv5_block1_0_bn_1/batchnorm/mul"], "attr": {"T": {"type": "DT_FLOAT"}}}, {"name": "StatefulPartitionedCall/dfew_classifier_1/resnet50_1/conv5_block1_2_bn_1/batchnorm/mul_1", "op": "Mul", "input": ["StatefulPartitionedCall/dfew_classifier_1/resnet50_1/conv5_block1_2_conv_1/BiasAdd", "StatefulPartitionedCall/dfew_classifier_1/resnet50_1/conv5_block1_2_bn_1/batchnorm/mul"], "attr": {"T": {"type": "DT_FLOAT"}}}, {"name": "StatefulPartitionedCall/dfew_classifier_1/resnet50_1/conv5_block1_2_bn_1/batchnorm/add_1", "op": "AddV2", "input": ["StatefulPartitionedCall/dfew_classifier_1/resnet50_1/conv5_block1_2_bn_1/batchnorm/mul_1", "StatefulPartitionedCall/dfew_classifier_1/resnet50_1/conv5_block1_2_bn_1/batchnorm/sub"], "attr": {"T": {"type": "DT_FLOAT"}}}, {"name": "StatefulPartitionedCall/dfew_classifier_1/resnet50_1/conv5_block1_2_relu_1/Relu", "op": "Relu", "input": ["StatefulPartitionedCall/dfew_classifier_1/resnet50_1/conv5_block1_2_bn_1/batchnorm/add_1"], "attr": {"T": {"type": "DT_FLOAT"}}}, {"name": "StatefulPartitionedCall/dfew_classifier_1/resnet50_1/conv5_block1_3_conv_1/BiasAdd", "op": "_FusedConv2D", "input": ["StatefulPartitionedCall/dfew_classifier_1/resnet50_1/conv5_block1_2_relu_1/Relu", "StatefulPartitionedCall/dfew_classifier_1/resnet50_1/conv5_block1_3_conv_1/convolution/ReadVariableOp", "StatefulPartitionedCall/dfew_classifier_1/resnet50_1/conv5_block1_3_conv_1/Squeeze"], "device": "/device:CPU:0", "attr": {"num_host_args": {"i": "0"}, "data_format": {"s": "TkhXQw=="}, "filter_format": {"s": "SFdJTw=="}, "fused_ops": {"list": {"s": ["Qmlhc0FkZA=="]}}, "num_args": {"i": "1"}, "strides": {"list": {"i": ["1", "1", "1", "1"]}}, "TArgs": {"list": {"type": ["DT_FLOAT"]}}, "padding": {"s": "VkFMSUQ="}, "use_cudnn_on_gpu": {"b": true}, "leakyrelu_alpha": {"f": 0.2}, "epsilon": {"f": 0.0}, "T": {"type": "DT_FLOAT"}, "explicit_paddings": {"list": {}}, "dilations": {"list": {"i": ["1", "1", "1", "1"]}}}}, {"name": "StatefulPartitionedCall/dfew_classifier_1/resnet50_1/conv5_block1_3_bn_1/batchnorm/mul_1", "op": "Mul", "input": ["StatefulPartitionedCall/dfew_classifier_1/resnet50_1/conv5_block1_3_conv_1/BiasAdd", "StatefulPartitionedCall/dfew_classifier_1/resnet50_1/conv5_block1_3_bn_1/batchnorm/mul"], "attr": {"T": {"type": "DT_FLOAT"}}}, {"name": "StatefulPartitionedCall/dfew_classifier_1/resnet50_1/conv5_block1_add_1/ArithmeticOptimizer/AddOpsRewrite_Leaf_1_Add", "op": "AddN", "input": ["StatefulPartitionedCall/dfew_classifier_1/resnet50_1/conv5_block1_0_bn_1/batchnorm/mul_1", "StatefulPartitionedCall/dfew_classifier_1/resnet50_1/conv5_block1_3_bn_1/batchnorm/mul_1"], "attr": {"N": {"i": "2"}, "T": {"type": "DT_FLOAT"}, "_grappler_ArithmeticOptimizer_AddOpsRewriteStage": {"b": true}}}, {"name": "StatefulPartitionedCall/dfew_classifier_1/resnet50_1/conv5_block1_add_1/ArithmeticOptimizer/AddOpsRewrite_Add", "op": "AddV2", "input": ["StatefulPartitionedCall/dfew_classifier_1/resnet50_1/conv5_block1_add_1/ArithmeticOptimizer/AddOpsRewrite_Leaf_0_Add", "StatefulPartitionedCall/dfew_classifier_1/resnet50_1/conv5_block1_add_1/ArithmeticOptimizer/AddOpsRewrite_Leaf_1_Add"], "attr": {"T": {"type": "DT_FLOAT"}, "_grappler_ArithmeticOptimizer_AddOpsRewriteStage": {"b": true}}}, {"name": "StatefulPartitionedCall/dfew_classifier_1/resnet50_1/conv5_block1_out_1/Relu", "op": "Relu", "input": ["StatefulPartitionedCall/dfew_classifier_1/resnet50_1/conv5_block1_add_1/ArithmeticOptimizer/AddOpsRewrite_Add"], "attr": {"T": {"type": "DT_FLOAT"}}}, {"name": "StatefulPartitionedCall/dfew_classifier_1/resnet50_1/conv5_block2_1_conv_1/BiasAdd", "op": "_FusedConv2D", "input": ["StatefulPartitionedCall/dfew_classifier_1/resnet50_1/conv5_block1_out_1/Relu", "StatefulPartitionedCall/dfew_classifier_1/resnet50_1/conv5_block2_1_conv_1/convolution/ReadVariableOp", "StatefulPartitionedCall/dfew_classifier_1/resnet50_1/conv5_block2_1_conv_1/Squeeze"], "device": "/device:CPU:0", "attr": {"num_host_args": {"i": "0"}, "data_format": {"s": "TkhXQw=="}, "filter_format": {"s": "SFdJTw=="}, "fused_ops": {"list": {"s": ["Qmlhc0FkZA=="]}}, "num_args": {"i": "1"}, "strides": {"list": {"i": ["1", "1", "1", "1"]}}, "TArgs": {"list": {"type": ["DT_FLOAT"]}}, "padding": {"s": "VkFMSUQ="}, "use_cudnn_on_gpu": {"b": true}, "leakyrelu_alpha": {"f": 0.2}, "epsilon": {"f": 0.0}, "T": {"type": "DT_FLOAT"}, "explicit_paddings": {"list": {}}, "dilations": {"list": {"i": ["1", "1", "1", "1"]}}}}, {"name": "StatefulPartitionedCall/dfew_classifier_1/resnet50_1/conv5_block2_1_bn_1/batchnorm/mul_1", "op": "Mul", "input": ["StatefulPartitionedCall/dfew_classifier_1/resnet50_1/conv5_block2_1_conv_1/BiasAdd", "StatefulPartitionedCall/dfew_classifier_1/resnet50_1/conv5_block2_1_bn_1/batchnorm/mul"], "attr": {"T": {"type": "DT_FLOAT"}}}, {"name": "StatefulPartitionedCall/dfew_classifier_1/resnet50_1/conv5_block2_1_bn_1/batchnorm/add_1", "op": "AddV2", "input": ["StatefulPartitionedCall/dfew_classifier_1/resnet50_1/conv5_block2_1_bn_1/batchnorm/mul_1", "StatefulPartitionedCall/dfew_classifier_1/resnet50_1/conv5_block2_1_bn_1/batchnorm/sub"], "attr": {"T": {"type": "DT_FLOAT"}}}, {"name": "StatefulPartitionedCall/dfew_classifier_1/resnet50_1/conv5_block2_1_relu_1/Relu", "op": "Relu", "input": ["StatefulPartitionedCall/dfew_classifier_1/resnet50_1/conv5_block2_1_bn_1/batchnorm/add_1"], "attr": {"T": {"type": "DT_FLOAT"}}}, {"name": "StatefulPartitionedCall/dfew_classifier_1/resnet50_1/conv5_block2_2_conv_1/BiasAdd", "op": "_FusedConv2D", "input": ["StatefulPartitionedCall/dfew_classifier_1/resnet50_1/conv5_block2_1_relu_1/Relu", "StatefulPartitionedCall/dfew_classifier_1/resnet50_1/conv5_block2_2_conv_1/convolution/ReadVariableOp", "StatefulPartitionedCall/dfew_classifier_1/resnet50_1/conv5_block2_2_conv_1/Squeeze"], "device": "/device:CPU:0", "attr": {"num_host_args": {"i": "0"}, "data_format": {"s": "TkhXQw=="}, "filter_format": {"s": "SFdJTw=="}, "strides": {"list": {"i": ["1", "1", "1", "1"]}}, "num_args": {"i": "1"}, "fused_ops": {"list": {"s": ["Qmlhc0FkZA=="]}}, "TArgs": {"list": {"type": ["DT_FLOAT"]}}, "padding": {"s": "U0FNRQ=="}, "use_cudnn_on_gpu": {"b": true}, "leakyrelu_alpha": {"f": 0.2}, "epsilon": {"f": 0.0}, "T": {"type": "DT_FLOAT"}, "explicit_paddings": {"list": {}}, "dilations": {"list": {"i": ["1", "1", "1", "1"]}}}}, {"name": "StatefulPartitionedCall/dfew_classifier_1/resnet50_1/conv5_block2_2_bn_1/batchnorm/mul_1", "op": "Mul", "input": ["StatefulPartitionedCall/dfew_classifier_1/resnet50_1/conv5_block2_2_conv_1/BiasAdd", "StatefulPartitionedCall/dfew_classifier_1/resnet50_1/conv5_block2_2_bn_1/batchnorm/mul"], "attr": {"T": {"type": "DT_FLOAT"}}}, {"name": "StatefulPartitionedCall/dfew_classifier_1/resnet50_1/conv5_block2_2_bn_1/batchnorm/add_1", "op": "AddV2", "input": ["StatefulPartitionedCall/dfew_classifier_1/resnet50_1/conv5_block2_2_bn_1/batchnorm/mul_1", "StatefulPartitionedCall/dfew_classifier_1/resnet50_1/conv5_block2_2_bn_1/batchnorm/sub"], "attr": {"T": {"type": "DT_FLOAT"}}}, {"name": "StatefulPartitionedCall/dfew_classifier_1/resnet50_1/conv5_block2_2_relu_1/Relu", "op": "Relu", "input": ["StatefulPartitionedCall/dfew_classifier_1/resnet50_1/conv5_block2_2_bn_1/batchnorm/add_1"], "attr": {"T": {"type": "DT_FLOAT"}}}, {"name": "StatefulPartitionedCall/dfew_classifier_1/resnet50_1/conv5_block2_3_conv_1/BiasAdd", "op": "_FusedConv2D", "input": ["StatefulPartitionedCall/dfew_classifier_1/resnet50_1/conv5_block2_2_relu_1/Relu", "StatefulPartitionedCall/dfew_classifier_1/resnet50_1/conv5_block2_3_conv_1/convolution/ReadVariableOp", "StatefulPartitionedCall/dfew_classifier_1/resnet50_1/conv5_block2_3_conv_1/Squeeze"], "device": "/device:CPU:0", "attr": {"num_host_args": {"i": "0"}, "data_format": {"s": "TkhXQw=="}, "filter_format": {"s": "SFdJTw=="}, "strides": {"list": {"i": ["1", "1", "1", "1"]}}, "num_args": {"i": "1"}, "fused_ops": {"list": {"s": ["Qmlhc0FkZA=="]}}, "TArgs": {"list": {"type": ["DT_FLOAT"]}}, "padding": {"s": "VkFMSUQ="}, "use_cudnn_on_gpu": {"b": true}, "leakyrelu_alpha": {"f": 0.2}, "epsilon": {"f": 0.0}, "T": {"type": "DT_FLOAT"}, "explicit_paddings": {"list": {}}, "dilations": {"list": {"i": ["1", "1", "1", "1"]}}}}, {"name": "StatefulPartitionedCall/dfew_classifier_1/resnet50_1/conv5_block2_3_bn_1/batchnorm/mul_1", "op": "Mul", "input": ["StatefulPartitionedCall/dfew_classifier_1/resnet50_1/conv5_block2_3_conv_1/BiasAdd", "StatefulPartitionedCall/dfew_classifier_1/resnet50_1/conv5_block2_3_bn_1/batchnorm/mul"], "attr": {"T": {"type": "DT_FLOAT"}}}, {"name": "StatefulPartitionedCall/dfew_classifier_1/resnet50_1/conv5_block2_add_1/ArithmeticOptimizer/AddOpsRewrite_Leaf_1_Add", "op": "AddN", "input": ["StatefulPartitionedCall/dfew_classifier_1/resnet50_1/conv5_block1_out_1/Relu", "StatefulPartitionedCall/dfew_classifier_1/resnet50_1/conv5_block2_3_bn_1/batchnorm/mul_1"], "attr": {"N": {"i": "2"}, "T": {"type": "DT_FLOAT"}, "_grappler_ArithmeticOptimizer_AddOpsRewriteStage": {"b": true}}}, {"name": "StatefulPartitionedCall/dfew_classifier_1/resnet50_1/conv5_block2_add_1/ArithmeticOptimizer/AddOpsRewrite_Add", "op": "AddV2", "input": ["StatefulPartitionedCall/dfew_classifier_1/resnet50_1/conv5_block2_3_bn_1/batchnorm/sub", "StatefulPartitionedCall/dfew_classifier_1/resnet50_1/conv5_block2_add_1/ArithmeticOptimizer/AddOpsRewrite_Leaf_1_Add"], "attr": {"T": {"type": "DT_FLOAT"}, "_grappler_ArithmeticOptimizer_AddOpsRewriteStage": {"b": true}}}, {"name": "StatefulPartitionedCall/dfew_classifier_1/resnet50_1/conv5_block2_out_1/Relu", "op": "Relu", "input": ["StatefulPartitionedCall/dfew_classifier_1/resnet50_1/conv5_block2_add_1/ArithmeticOptimizer/AddOpsRewrite_Add"], "attr": {"T": {"type": "DT_FLOAT"}}}, {"name": "StatefulPartitionedCall/dfew_classifier_1/resnet50_1/conv5_block3_1_conv_1/BiasAdd", "op": "_FusedConv2D", "input": ["StatefulPartitionedCall/dfew_classifier_1/resnet50_1/conv5_block2_out_1/Relu", "StatefulPartitionedCall/dfew_classifier_1/resnet50_1/conv5_block3_1_conv_1/convolution/ReadVariableOp", "StatefulPartitionedCall/dfew_classifier_1/resnet50_1/conv5_block3_1_conv_1/Squeeze"], "device": "/device:CPU:0", "attr": {"num_host_args": {"i": "0"}, "data_format": {"s": "TkhXQw=="}, "filter_format": {"s": "SFdJTw=="}, "fused_ops": {"list": {"s": ["Qmlhc0FkZA=="]}}, "num_args": {"i": "1"}, "strides": {"list": {"i": ["1", "1", "1", "1"]}}, "TArgs": {"list": {"type": ["DT_FLOAT"]}}, "padding": {"s": "VkFMSUQ="}, "use_cudnn_on_gpu": {"b": true}, "leakyrelu_alpha": {"f": 0.2}, "epsilon": {"f": 0.0}, "T": {"type": "DT_FLOAT"}, "explicit_paddings": {"list": {}}, "dilations": {"list": {"i": ["1", "1", "1", "1"]}}}}, {"name": "StatefulPartitionedCall/dfew_classifier_1/resnet50_1/conv5_block3_1_bn_1/batchnorm/mul_1", "op": "Mul", "input": ["StatefulPartitionedCall/dfew_classifier_1/resnet50_1/conv5_block3_1_conv_1/BiasAdd", "StatefulPartitionedCall/dfew_classifier_1/resnet50_1/conv5_block3_1_bn_1/batchnorm/mul"], "attr": {"T": {"type": "DT_FLOAT"}}}, {"name": "StatefulPartitionedCall/dfew_classifier_1/resnet50_1/conv5_block3_1_bn_1/batchnorm/add_1", "op": "AddV2", "input": ["StatefulPartitionedCall/dfew_classifier_1/resnet50_1/conv5_block3_1_bn_1/batchnorm/mul_1", "StatefulPartitionedCall/dfew_classifier_1/resnet50_1/conv5_block3_1_bn_1/batchnorm/sub"], "attr": {"T": {"type": "DT_FLOAT"}}}, {"name": "StatefulPartitionedCall/dfew_classifier_1/resnet50_1/conv5_block3_1_relu_1/Relu", "op": "Relu", "input": ["StatefulPartitionedCall/dfew_classifier_1/resnet50_1/conv5_block3_1_bn_1/batchnorm/add_1"], "attr": {"T": {"type": "DT_FLOAT"}}}, {"name": "StatefulPartitionedCall/dfew_classifier_1/resnet50_1/conv5_block3_2_conv_1/BiasAdd", "op": "_FusedConv2D", "input": ["StatefulPartitionedCall/dfew_classifier_1/resnet50_1/conv5_block3_1_relu_1/Relu", "StatefulPartitionedCall/dfew_classifier_1/resnet50_1/conv5_block3_2_conv_1/convolution/ReadVariableOp", "StatefulPartitionedCall/dfew_classifier_1/resnet50_1/conv5_block3_2_conv_1/Squeeze"], "device": "/device:CPU:0", "attr": {"num_host_args": {"i": "0"}, "data_format": {"s": "TkhXQw=="}, "filter_format": {"s": "SFdJTw=="}, "fused_ops": {"list": {"s": ["Qmlhc0FkZA=="]}}, "num_args": {"i": "1"}, "strides": {"list": {"i": ["1", "1", "1", "1"]}}, "TArgs": {"list": {"type": ["DT_FLOAT"]}}, "padding": {"s": "U0FNRQ=="}, "use_cudnn_on_gpu": {"b": true}, "leakyrelu_alpha": {"f": 0.2}, "epsilon": {"f": 0.0}, "T": {"type": "DT_FLOAT"}, "explicit_paddings": {"list": {}}, "dilations": {"list": {"i": ["1", "1", "1", "1"]}}}}, {"name": "StatefulPartitionedCall/dfew_classifier_1/resnet50_1/conv5_block3_2_bn_1/batchnorm/mul_1", "op": "Mul", "input": ["StatefulPartitionedCall/dfew_classifier_1/resnet50_1/conv5_block3_2_conv_1/BiasAdd", "StatefulPartitionedCall/dfew_classifier_1/resnet50_1/conv5_block3_2_bn_1/batchnorm/mul"], "attr": {"T": {"type": "DT_FLOAT"}}}, {"name": "StatefulPartitionedCall/dfew_classifier_1/resnet50_1/conv5_block3_2_bn_1/batchnorm/add_1", "op": "AddV2", "input": ["StatefulPartitionedCall/dfew_classifier_1/resnet50_1/conv5_block3_2_bn_1/batchnorm/mul_1", "StatefulPartitionedCall/dfew_classifier_1/resnet50_1/conv5_block3_2_bn_1/batchnorm/sub"], "attr": {"T": {"type": "DT_FLOAT"}}}, {"name": "StatefulPartitionedCall/dfew_classifier_1/resnet50_1/conv5_block3_2_relu_1/Relu", "op": "Relu", "input": ["StatefulPartitionedCall/dfew_classifier_1/resnet50_1/conv5_block3_2_bn_1/batchnorm/add_1"], "attr": {"T": {"type": "DT_FLOAT"}}}, {"name": "StatefulPartitionedCall/dfew_classifier_1/resnet50_1/conv5_block3_3_conv_1/BiasAdd", "op": "_FusedConv2D", "input": ["StatefulPartitionedCall/dfew_classifier_1/resnet50_1/conv5_block3_2_relu_1/Relu", "StatefulPartitionedCall/dfew_classifier_1/resnet50_1/conv5_block3_3_conv_1/convolution/ReadVariableOp", "StatefulPartitionedCall/dfew_classifier_1/resnet50_1/conv5_block3_3_conv_1/Squeeze"], "device": "/device:CPU:0", "attr": {"num_host_args": {"i": "0"}, "data_format": {"s": "TkhXQw=="}, "filter_format": {"s": "SFdJTw=="}, "fused_ops": {"list": {"s": ["Qmlhc0FkZA=="]}}, "num_args": {"i": "1"}, "strides": {"list": {"i": ["1", "1", "1", "1"]}}, "TArgs": {"list": {"type": ["DT_FLOAT"]}}, "padding": {"s": "VkFMSUQ="}, "use_cudnn_on_gpu": {"b": true}, "leakyrelu_alpha": {"f": 0.2}, "epsilon": {"f": 0.0}, "T": {"type": "DT_FLOAT"}, "explicit_paddings": {"list": {}}, "dilations": {"list": {"i": ["1", "1", "1", "1"]}}}}, {"name": "StatefulPartitionedCall/dfew_classifier_1/resnet50_1/conv5_block3_3_bn_1/batchnorm/mul_1", "op": "Mul", "input": ["StatefulPartitionedCall/dfew_classifier_1/resnet50_1/conv5_block3_3_conv_1/BiasAdd", "StatefulPartitionedCall/dfew_classifier_1/resnet50_1/conv5_block3_3_bn_1/batchnorm/mul"], "attr": {"T": {"type": "DT_FLOAT"}}}, {"name": "StatefulPartitionedCall/dfew_classifier_1/resnet50_1/conv5_block3_add_1/ArithmeticOptimizer/AddOpsRewrite_Leaf_1_Add", "op": "AddN", "input": ["StatefulPartitionedCall/dfew_classifier_1/resnet50_1/conv5_block2_out_1/Relu", "StatefulPartitionedCall/dfew_classifier_1/resnet50_1/conv5_block3_3_bn_1/batchnorm/mul_1"], "attr": {"N": {"i": "2"}, "T": {"type": "DT_FLOAT"}, "_grappler_ArithmeticOptimizer_AddOpsRewriteStage": {"b": true}}}, {"name": "StatefulPartitionedCall/dfew_classifier_1/resnet50_1/conv5_block3_add_1/ArithmeticOptimizer/AddOpsRewrite_Add", "op": "AddV2", "input": ["StatefulPartitionedCall/dfew_classifier_1/resnet50_1/conv5_block3_3_bn_1/batchnorm/sub", "StatefulPartitionedCall/dfew_classifier_1/resnet50_1/conv5_block3_add_1/ArithmeticOptimizer/AddOpsRewrite_Leaf_1_Add"], "attr": {"T": {"type": "DT_FLOAT"}, "_grappler_ArithmeticOptimizer_AddOpsRewriteStage": {"b": true}}}, {"name": "StatefulPartitionedCall/dfew_classifier_1/resnet50_1/conv5_block3_out_1/Relu", "op": "Relu", "input": ["StatefulPartitionedCall/dfew_classifier_1/resnet50_1/conv5_block3_add_1/ArithmeticOptimizer/AddOpsRewrite_Add"], "attr": {"T": {"type": "DT_FLOAT"}}}, {"name": "StatefulPartitionedCall/dfew_classifier_1/resnet50_1/avg_pool_1/Mean", "op": "Mean", "input": ["StatefulPartitionedCall/dfew_classifier_1/resnet50_1/conv5_block3_out_1/Relu", "StatefulPartitionedCall/dfew_classifier_1/resnet50_1/avg_pool_1/Mean/reduction_indices"], "attr": {"T": {"type": "DT_FLOAT"}, "Tidx": {"type": "DT_INT32"}, "keep_dims": {"b": false}}}, {"name": "StatefulPartitionedCall/dfew_classifier_1/Reshape_1", "op": "Reshape", "input": ["StatefulPartitionedCall/dfew_classifier_1/resnet50_1/avg_pool_1/Mean", "StatefulPartitionedCall/dfew_classifier_1/Reshape_1/shape"], "attr": {"T": {"type": "DT_FLOAT"}, "Tshape": {"type": "DT_INT32"}}}, {"name": "StatefulPartitionedCall/dfew_classifier_1/frame_attention_1/sequential_1/dense_1/MatMul", "op": "BatchMatMulV2", "input": ["StatefulPartitionedCall/dfew_classifier_1/Reshape_1", "StatefulPartitionedCall/dfew_classifier_1/frame_attention_1/sequential_1/dense_1/Cast/ReadVariableOp"], "attr": {"adj_x": {"b": false}, "grad_y": {"b": false}, "T": {"type": "DT_FLOAT"}, "adj_y": {"b": false}, "grad_x": {"b": false}}}, {"name": "StatefulPartitionedCall/dfew_classifier_1/frame_attention_1/sequential_1/dense_1/Tanh", "op": "Tanh", "input": ["StatefulPartitionedCall/dfew_classifier_1/frame_attention_1/sequential_1/dense_1/MatMul"], "attr": {"T": {"type": "DT_FLOAT"}}}, {"name": "StatefulPartitionedCall/dfew_classifier_1/frame_attention_1/sequential_1/dense_1_2/MatMul", "op": "BatchMatMulV2", "input": ["StatefulPartitionedCall/dfew_classifier_1/frame_attention_1/sequential_1/dense_1/Tanh", "StatefulPartitionedCall/dfew_classifier_1/frame_attention_1/sequential_1/dense_1_2/Cast/ReadVariableOp"], "attr": {"adj_x": {"b": false}, "grad_y": {"b": false}, "T": {"type": "DT_FLOAT"}, "adj_y": {"b": false}, "grad_x": {"b": false}}}, {"name": "StatefulPartitionedCall/dfew_classifier_1/frame_attention_1/transpose", "op": "Transpose", "input": ["StatefulPartitionedCall/dfew_classifier_1/frame_attention_1/sequential_1/dense_1_2/MatMul", "StatefulPartitionedCall/dfew_classifier_1/frame_attention_1/concat"], "attr": {"Tperm": {"type": "DT_INT32"}, "T": {"type": "DT_FLOAT"}}}, {"name": "StatefulPartitionedCall/dfew_classifier_1/frame_attention_1/Softmax", "op": "Softmax", "input": ["StatefulPartitionedCall/dfew_classifier_1/frame_attention_1/transpose"], "attr": {"T": {"type": "DT_FLOAT"}}}, {"name": "StatefulPartitionedCall/dfew_classifier_1/frame_attention_1/transpose_1", "op": "Transpose", "input": ["StatefulPartitionedCall/dfew_classifier_1/frame_attention_1/Softmax", "StatefulPartitionedCall/dfew_classifier_1/frame_attention_1/concat_1"], "attr": {"Tperm": {"type": "DT_INT32"}, "T": {"type": "DT_FLOAT"}}}, {"name": "StatefulPartitionedCall/dfew_classifier_1/frame_attention_1/mul", "op": "Mul", "input": ["StatefulPartitionedCall/dfew_classifier_1/Reshape_1", "StatefulPartitionedCall/dfew_classifier_1/frame_attention_1/transpose_1"], "attr": {"T": {"type": "DT_FLOAT"}}}, {"name": "StatefulPartitionedCall/dfew_classifier_1/frame_attention_1/Sum", "op": "Sum", "input": ["StatefulPartitionedCall/dfew_classifier_1/frame_attention_1/mul", "StatefulPartitionedCall/dfew_classifier_1/frame_attention_1/Sum/reduction_indices"], "attr": {"T": {"type": "DT_FLOAT"}, "Tidx": {"type": "DT_INT32"}, "keep_dims": {"b": false}}}, {"name": "StatefulPartitionedCall/dfew_classifier_1/fc_1/MatMul", "op": "MatMul", "input": ["StatefulPartitionedCall/dfew_classifier_1/frame_attention_1/Sum", "StatefulPartitionedCall/dfew_classifier_1/fc_1/Cast/ReadVariableOp"], "device": "/device:CPU:0", "attr": {"transpose_a": {"b": false}, "grad_a": {"b": false}, "T": {"type": "DT_FLOAT"}, "grad_b": {"b": false}, "transpose_b": {"b": false}}}, {"name": "StatefulPartitionedCall/dfew_classifier_1/fc_1/Relu", "op": "Relu", "input": ["StatefulPartitionedCall/dfew_classifier_1/fc_1/MatMul"], "attr": {"T": {"type": "DT_FLOAT"}}}, {"name": "StatefulPartitionedCall/dfew_classifier_1/predictions_1/MatMul", "op": "MatMul", "input": ["StatefulPartitionedCall/dfew_classifier_1/fc_1/Relu", "StatefulPartitionedCall/dfew_classifier_1/predictions_1/Cast/ReadVariableOp"], "device": "/device:CPU:0", "attr": {"grad_a": {"b": false}, "transpose_a": {"b": false}, "T": {"type": "DT_FLOAT"}, "grad_b": {"b": false}, "transpose_b": {"b": false}}}, {"name": "StatefulPartitionedCall/dfew_classifier_1/Softmax", "op": "Softmax", "input": ["StatefulPartitionedCall/dfew_classifier_1/predictions_1/MatMul"], "attr": {"T": {"type": "DT_FLOAT"}}}, {"name": "Identity", "op": "Identity", "input": ["StatefulPartitionedCall/dfew_classifier_1/Softmax"], "attr": {"T": {"type": "DT_FLOAT"}}}], "library": {}, "versions": {"producer": 2129}}, "weightsManifest": [{"paths": ["group1-shard1of24.bin", "group1-shard2of24.bin", "group1-shard3of24.bin", "group1-shard4of24.bin", "group1-shard5of24.bin", "group1-shard6of24.bin", "group1-shard7of24.bin", "group1-shard8of24.bin", "group1-shard9of24.bin", "group1-shard10of24.bin", "group1-shard11of24.bin", "group1-shard12of24.bin", "group1-shard13of24.bin", "group1-shard14of24.bin", "group1-shard15of24.bin", "group1-shard16of24.bin", "group1-shard17of24.bin", "group1-shard18of24.bin", "group1-shard19of24.bin", "group1-shard20of24.bin", "group1-shard21of24.bin", "group1-shard22of24.bin", "group1-shard23of24.bin", "group1-shard24of24.bin"], "weights": [{"name": "StatefulPartitionedCall/dfew_classifier_1/resnet50_1/conv5_block3_3_bn_1/batchnorm/sub", "shape": [1, 1, 1, 2048], "dtype": "float32"}, {"name": "StatefulPartitionedCall/dfew_classifier_1/resnet50_1/conv5_block2_3_bn_1/batchnorm/sub", "shape": [1, 1, 1, 2048], "dtype": "float32"}, {"name": "StatefulPartitionedCall/dfew_classifier_1/resnet50_1/conv5_block1_add_1/ArithmeticOptimizer/AddOpsRewrite_Leaf_0_Add", "shape": [1, 1, 1, 2048], "dtype": "float32"}, {"name": "StatefulPartitionedCall/dfew_classifier_1/resnet50_1/conv5_block1_0_conv_1/convolution/ReadVariableOp", "shape": [1, 1, 1024, 2048], "dtype": "float32"}, {"name": "StatefulPartitionedCall/dfew_classifier_1/resnet50_1/conv5_block1_0_conv_1/Squeeze", "shape": [2048], "dtype": "float32"}, {"name": "StatefulPartitionedCall/dfew_classifier_1/resnet50_1/conv5_block1_0_bn_1/batchnorm/mul", "shape": [1, 1, 1, 2048], "dtype": "float32"}, {"name": "StatefulPartitionedCall/dfew_classifier_1/resnet50_1/conv4_block6_3_bn_1/batchnorm/sub", "shape": [1, 1, 1, 1024], "dtype": "float32"}, {"name": "StatefulPartitionedCall/dfew_classifier_1/resnet50_1/conv4_block5_3_bn_1/batchnorm/sub", "shape": [1, 1, 1, 1024], "dtype": "float32"}, {"name": "StatefulPartitionedCall/dfew_classifier_1/resnet50_1/conv4_block4_3_bn_1/batchnorm/sub", "shape": [1, 1, 1, 1024], "dtype": "float32"}, {"name": "StatefulPartitionedCall/dfew_classifier_1/resnet50_1/conv4_block3_3_bn_1/batchnorm/sub", "shape": [1, 1, 1, 1024], "dtype": "float32"}, {"name": "StatefulPartitionedCall/dfew_classifier_1/resnet50_1/conv4_block2_3_bn_1/batchnorm/sub", "shape": [1, 1, 1, 1024], "dtype": "float32"}, {"name": "StatefulPartitionedCall/dfew_classifier_1/resnet50_1/conv4_block1_add_1/ArithmeticOptimizer/AddOpsRewrite_Leaf_0_Add", "shape": [1, 1, 1, 1024], "dtype": "float32"}, {"name": "StatefulPartitionedCall/dfew_classifier_1/resnet50_1/conv4_block1_0_conv_1/convolution/merged_input", "shape": [1, 1, 512, 1024], "dtype": "float32"}, {"name": "StatefulPartitionedCall/dfew_classifier_1/resnet50_1/conv3_block4_3_bn_1/batchnorm/sub", "shape": [1, 1, 1, 512], "dtype": "float32"}, {"name": "StatefulPartitionedCall/dfew_classifier_1/resnet50_1/conv3_block3_3_bn_1/batchnorm/sub", "shape": [1, 1, 1, 512], "dtype": "float32"}, {"name": "StatefulPartitionedCall/dfew_classifier_1/resnet50_1/conv3_block2_3_bn_1/batchnorm/sub", "shape": [1, 1, 1, 512], "dtype": "float32"}, {"name": "StatefulPartitionedCall/dfew_classifier_1/resnet50_1/conv3_block1_add_1/ArithmeticOptimizer/AddOpsRewrite_Leaf_0_Add", "shape": [1, 1, 1, 512], "dtype": "float32"}, {"name": "StatefulPartitionedCall/dfew_classifier_1/resnet50_1/conv3_block1_0_conv_1/convolution/merged_input", "shape": [1, 1, 256, 512], "dtype": "float32"}, {"name": "StatefulPartitionedCall/dfew_classifier_1/resnet50_1/conv2_block3_3_bn_1/batchnorm/sub", "shape": [1, 1, 1, 256], "dtype": "float32"}, {"name": "StatefulPartitionedCall/dfew_classifier_1/resnet50_1/conv2_block2_3_bn_1/batchnorm/sub", "shape": [1, 1, 1, 256], "dtype": "float32"}, {"name": "StatefulPartitionedCall/dfew_classifier_1/resnet50_1/conv2_block1_add_1/ArithmeticOptimizer/AddOpsRewrite_Leaf_0_Add", "shape": [1, 1, 1, 256], "dtype": "float32"}, {"name": "StatefulPartitionedCall/dfew_classifier_1/resnet50_1/conv2_block1_0_conv_1/convolution/merged_input", "shape": [1, 1, 64, 256], "dtype": "float32"}, {"name": "StatefulPartitionedCall/dfew_classifier_1/Reshape/shape", "shape": [4], "dtype": "int32"}, {"name": "StatefulPartitionedCall/dfew_classifier_1/resnet50_1/conv1_pad_1/Const", "shape": [4, 2], "dtype": "int32"}, {"name": "StatefulPartitionedCall/dfew_classifier_1/resnet50_1/conv1_conv_1/convolution/ReadVariableOp", "shape": [7, 7, 3, 64], "dtype": "float32"}, {"name": "StatefulPartitionedCall/dfew_classifier_1/resnet50_1/conv1_conv_1/Squeeze", "shape": [64], "dtype": "float32"}, {"name": "StatefulPartitionedCall/dfew_classifier_1/resnet50_1/conv1_bn_1/batchnorm/mul", "shape": [1, 1, 1, 64], "dtype": "float32"}, {"name": "StatefulPartitionedCall/dfew_classifier_1/resnet50_1/conv1_bn_1/batchnorm/sub", "shape": [1, 1, 1, 64], "dtype": "float32"}, {"name": "StatefulPartitionedCall/dfew_classifier_1/resnet50_1/pool1_pad_1/Const", "shape": [4, 2], "dtype": "int32"}, {"name": "StatefulPartitionedCall/dfew_classifier_1/resnet50_1/conv2_block1_1_conv_1/convolution/merged_input", "shape": [1, 1, 64, 64], "dtype": "float32"}, {"name": "StatefulPartitionedCall/dfew_classifier_1/resnet50_1/conv2_block1_1_bn_1/batchnorm/sub", "shape": [1, 1, 1, 64], "dtype": "float32"}, {"name": "StatefulPartitionedCall/dfew_classifier_1/resnet50_1/conv2_block1_2_conv_1/convolution/merged_input", "shape": [3, 3, 64, 64], "dtype": "float32"}, {"name": "StatefulPartitionedCall/dfew_classifier_1/resnet50_1/conv2_block1_2_bn_1/batchnorm/sub", "shape": [1, 1, 1, 64], "dtype": "float32"}, {"name": "StatefulPartitionedCall/dfew_classifier_1/resnet50_1/conv2_block1_3_conv_1/convolution/merged_input", "shape": [1, 1, 64, 256], "dtype": "float32"}, {"name": "StatefulPartitionedCall/dfew_classifier_1/resnet50_1/conv2_block2_1_conv_1/convolution/merged_input", "shape": [1, 1, 256, 64], "dtype": "float32"}, {"name": "StatefulPartitionedCall/dfew_classifier_1/resnet50_1/conv2_block2_1_bn_1/batchnorm/sub", "shape": [1, 1, 1, 64], "dtype": "float32"}, {"name": "StatefulPartitionedCall/dfew_classifier_1/resnet50_1/conv2_block2_2_conv_1/convolution/merged_input", "shape": [3, 3, 64, 64], "dtype": "float32"}, {"name": "StatefulPartitionedCall/dfew_classifier_1/resnet50_1/conv2_block2_2_bn_1/batchnorm/sub", "shape": [1, 1, 1, 64], "dtype": "float32"}, {"name": "StatefulPartitionedCall/dfew_classifier_1/resnet50_1/conv2_block2_3_conv_1/convolution/merged_input", "shape": [1, 1, 64, 256], "dtype": "float32"}, {"name": "StatefulPartitionedCall/dfew_classifier_1/resnet50_1/conv2_block3_1_conv_1/convolution/merged_input", "shape": [1, 1, 256, 64], "dtype": "float32"}, {"name": "StatefulPartitionedCall/dfew_classifier_1/resnet50_1/conv2_block3_1_bn_1/batchnorm/sub", "shape": [1, 1, 1, 64], "dtype": "float32"}, {"name": "StatefulPartitionedCall/dfew_classifier_1/resnet50_1/conv2_block3_2_conv_1/convolution/merged_input", "shape": [3, 3, 64, 64], "dtype": "float32"}, {"name": "StatefulPartitionedCall/dfew_classifier_1/resnet50_1/conv2_block3_2_bn_1/batchnorm/sub", "shape": [1, 1, 1, 64], "dtype": "float32"}, {"name": "StatefulPartitionedCall/dfew_classifier_1/resnet50_1/conv2_block3_3_conv_1/convolution/merged_input", "shape": [1, 1, 64, 256], "dtype": "float32"}, {"name": "StatefulPartitionedCall/dfew_classifier_1/resnet50_1/conv3_block1_1_conv_1/convolution/merged_input", "shape": [1, 1, 256, 128], "dtype": "float32"}, {"name": "StatefulPartitionedCall/dfew_classifier_1/resnet50_1/conv3_block1_1_bn_1/batchnorm/sub", "shape": [1, 1, 1, 128], "dtype": "float32"}, {"name": "StatefulPartitionedCall/dfew_classifier_1/resnet50_1/conv3_block1_2_conv_1/convolution/merged_input", "shape": [3, 3, 128, 128], "dtype": "float32"}, {"name": "StatefulPartitionedCall/dfew_classifier_1/resnet50_1/conv3_block1_2_bn_1/batchnorm/sub", "shape": [1, 1, 1, 128], "dtype": "float32"}, {"name": "StatefulPartitionedCall/dfew_classifier_1/resnet50_1/conv3_block1_3_conv_1/convolution/merged_input", "shape": [1, 1, 128, 512], "dtype": "float32"}, {"name": "StatefulPartitionedCall/dfew_classifier_1/resnet50_1/conv3_block2_1_conv_1/convolution/merged_input", "shape": [1, 1, 512, 128], "dtype": "float32"}, {"name": "StatefulPartitionedCall/dfew_classifier_1/resnet50_1/conv3_block2_1_bn_1/batchnorm/sub", "shape": [1, 1, 1, 128], "dtype": "float32"}, {"name": "StatefulPartitionedCall/dfew_classifier_1/resnet50_1/conv3_block2_2_conv_1/convolution/merged_input", "shape": [3, 3, 128, 128], "dtype": "float32"}, {"name": "StatefulPartitionedCall/dfew_classifier_1/resnet50_1/conv3_block2_2_bn_1/batchnorm/sub", "shape": [1, 1, 1, 128], "dtype": "float32"}, {"name": "StatefulPartitionedCall/dfew_classifier_1/resnet50_1/conv3_block2_3_conv_1/convolution/merged_input", "shape": [1, 1, 128, 512], "dtype": "float32"}, {"name": "StatefulPartitionedCall/dfew_classifier_1/resnet50_1/conv3_block3_1_conv_1/convolution/merged_input", "shape": [1, 1, 512, 128], "dtype": "float32"}, {"name": "StatefulPartitionedCall/dfew_classifier_1/resnet50_1/conv3_block3_1_bn_1/batchnorm/sub", "shape": [1, 1, 1, 128], "dtype": "float32"}, {"name": "StatefulPartitionedCall/dfew_classifier_1/resnet50_1/conv3_block3_2_conv_1/convolution/merged_input", "shape": [3, 3, 128, 128], "dtype": "float32"}, {"name": "StatefulPartitionedCall/dfew_classifier_1/resnet50_1/conv3_block3_2_bn_1/batchnorm/sub", "shape": [1, 1, 1, 128], "dtype": "float32"}, {"name": "StatefulPartitionedCall/dfew_classifier_1/resnet50_1/conv3_block3_3_conv_1/convolution/merged_input", "shape": [1, 1, 128, 512], "dtype": "float32"}, {"name": "StatefulPartitionedCall/dfew_classifier_1/resnet50_1/conv3_block4_1_conv_1/convolution/merged_input", "shape": [1, 1, 512, 128], "dtype": "float32"}, {"name": "StatefulPartitionedCall/dfew_classifier_1/resnet50_1/conv3_block4_1_bn_1/batchnorm/sub", "shape": [1, 1, 1, 128], "dtype": "float32"}, {"name": "StatefulPartitionedCall/dfew_classifier_1/resnet50_1/conv3_block4_2_conv_1/convolution/merged_input", "shape": [3, 3, 128, 128], "dtype": "float32"}, {"name": "StatefulPartitionedCall/dfew_classifier_1/resnet50_1/conv3_block4_2_bn_1/batchnorm/sub", "shape": [1, 1, 1, 128], "dtype": "float32"}, {"name": "StatefulPartitionedCall/dfew_classifier_1/resnet50_1/conv3_block4_3_conv_1/convolution/merged_input", "shape": [1, 1, 128, 512], "dtype": "float32"}, {"name": "StatefulPartitionedCall/dfew_classifier_1/resnet50_1/conv4_block1_1_conv_1/convolution/merged_input", "shape": [1, 1, 512, 256], "dtype": "float32"}, {"name": "StatefulPartitionedCall/dfew_classifier_1/resnet50_1/conv4_block1_1_bn_1/batchnorm/sub", "shape": [1, 1, 1, 256], "dtype": "float32"}, {"name": "StatefulPartitionedCall/dfew_classifier_1/resnet50_1/conv4_block1_2_conv_1/convolution/merged_input", "shape": [3, 3, 256, 256], "dtype": "float32"}, {"name": "StatefulPartitionedCall/dfew_classifier_1/resnet50_1/conv4_block1_2_bn_1/batchnorm/sub", "shape": [1, 1, 1, 256], "dtype": "float32"}, {"name": "StatefulPartitionedCall/dfew_classifier_1/resnet50_1/conv4_block1_3_conv_1/convolution/merged_input", "shape": [1, 1, 256, 1024], "dtype": "float32"}, {"name": "StatefulPartitionedCall/dfew_classifier_1/resnet50_1/conv4_block2_1_conv_1/convolution/merged_input", "shape": [1, 1, 1024, 256], "dtype": "float32"}, {"name": "StatefulPartitionedCall/dfew_classifier_1/resnet50_1/conv4_block2_1_bn_1/batchnorm/sub", "shape": [1, 1, 1, 256], "dtype": "float32"}, {"name": "StatefulPartitionedCall/dfew_classifier_1/resnet50_1/conv4_block2_2_conv_1/convolution/merged_input", "shape": [3, 3, 256, 256], "dtype": "float32"}, {"name": "StatefulPartitionedCall/dfew_classifier_1/resnet50_1/conv4_block2_2_bn_1/batchnorm/sub", "shape": [1, 1, 1, 256], "dtype": "float32"}, {"name": "StatefulPartitionedCall/dfew_classifier_1/resnet50_1/conv4_block2_3_conv_1/convolution/merged_input", "shape": [1, 1, 256, 1024], "dtype": "float32"}, {"name": "StatefulPartitionedCall/dfew_classifier_1/resnet50_1/conv4_block3_1_conv_1/convolution/merged_input", "shape": [1, 1, 1024, 256], "dtype": "float32"}, {"name": "StatefulPartitionedCall/dfew_classifier_1/resnet50_1/conv4_block3_1_bn_1/batchnorm/sub", "shape": [1, 1, 1, 256], "dtype": "float32"}, {"name": "StatefulPartitionedCall/dfew_classifier_1/resnet50_1/conv4_block3_2_conv_1/convolution/merged_input", "shape": [3, 3, 256, 256], "dtype": "float32"}, {"name": "StatefulPartitionedCall/dfew_classifier_1/resnet50_1/conv4_block3_2_bn_1/batchnorm/sub", "shape": [1, 1, 1, 256], "dtype": "float32"}, {"name": "StatefulPartitionedCall/dfew_classifier_1/resnet50_1/conv4_block3_3_conv_1/convolution/merged_input", "shape": [1, 1, 256, 1024], "dtype": "float32"}, {"name": "StatefulPartitionedCall/dfew_classifier_1/resnet50_1/conv4_block4_1_conv_1/convolution/merged_input", "shape": [1, 1, 1024, 256], "dtype": "float32"}, {"name": "StatefulPartitionedCall/dfew_classifier_1/resnet50_1/conv4_block4_1_bn_1/batchnorm/sub", "shape": [1, 1, 1, 256], "dtype": "float32"}, {"name": "StatefulPartitionedCall/dfew_classifier_1/resnet50_1/conv4_block4_2_conv_1/convolution/merged_input", "shape": [3, 3, 256, 256], "dtype": "float32"}, {"name": "StatefulPartitionedCall/dfew_classifier_1/resnet50_1/conv4_block4_2_bn_1/batchnorm/sub", "shape": [1, 1, 1, 256], "dtype": "float32"}, {"name": "StatefulPartitionedCall/dfew_classifier_1/resnet50_1/conv4_block4_3_conv_1/convolution/merged_input", "shape": [1, 1, 256, 1024], "dtype": "float32"}, {"name": "StatefulPartitionedCall/dfew_classifier_1/resnet50_1/conv4_block5_1_conv_1/convolution/merged_input", "shape": [1, 1, 1024, 256], "dtype": "float32"}, {"name": "StatefulPartitionedCall/dfew_classifier_1/resnet50_1/conv4_block5_1_bn_1/batchnorm/sub", "shape": [1, 1, 1, 256], "dtype": "float32"}, {"name": "StatefulPartitionedCall/dfew_classifier_1/resnet50_1/conv4_block5_2_conv_1/convolution/merged_input", "shape": [3, 3, 256, 256], "dtype": "float32"}, {"name": "StatefulPartitionedCall/dfew_classifier_1/resnet50_1/conv4_block5_2_bn_1/batchnorm/sub", "shape": [1, 1, 1, 256], "dtype": "float32"}, {"name": "StatefulPartitionedCall/dfew_classifier_1/resnet50_1/conv4_block5_3_conv_1/convolution/merged_input", "shape": [1, 1, 256, 1024], "dtype": "float32"}, {"name": "StatefulPartitionedCall/dfew_classifier_1/resnet50_1/conv4_block6_1_conv_1/convolution/merged_input", "shape": [1, 1, 1024, 256], "dtype": "float32"}, {"name": "StatefulPartitionedCall/dfew_classifier_1/resnet50_1/conv4_block6_1_bn_1/batchnorm/sub", "shape": [1, 1, 1, 256], "dtype": "float32"}, {"name": "StatefulPartitionedCall/dfew_classifier_1/resnet50_1/conv4_block6_2_conv_1/convolution/merged_input", "shape": [3, 3, 256, 256], "dtype": "float32"}, {"name": "StatefulPartitionedCall/dfew_classifier_1/resnet50_1/conv4_block6_2_bn_1/batchnorm/sub", "shape": [1, 1, 1, 256], "dtype": "float32"}, {"name": "StatefulPartitionedCall/dfew_classifier_1/resnet50_1/conv4_block6_3_conv_1/convolution/merged_input", "shape": [1, 1, 256, 1024], "dtype": "float32"}, {"name": "StatefulPartitionedCall/dfew_classifier_1/resnet50_1/conv5_block1_1_conv_1/convolution/merged_input", "shape": [1, 1, 1024, 512], "dtype": "float32"}, {"name": "StatefulPartitionedCall/dfew_classifier_1/resnet50_1/conv5_block1_1_bn_1/batchnorm/sub", "shape": [1, 1, 1, 512], "dtype": "float32"}, {"name": "StatefulPartitionedCall/dfew_classifier_1/resnet50_1/conv5_block1_2_conv_1/convolution/ReadVariableOp", "shape": [3, 3, 512, 512], "dtype": "float32"}, {"name": "StatefulPartitionedCall/dfew_classifier_1/resnet50_1/conv5_block1_2_conv_1/Squeeze", "shape": [512], "dtype": "float32"}, {"name": "StatefulPartitionedCall/dfew_classifier_1/resnet50_1/conv5_block1_2_bn_1/batchnorm/mul", "shape": [1, 1, 1, 512], "dtype": "float32"}, {"name": "StatefulPartitionedCall/dfew_classifier_1/resnet50_1/conv5_block1_2_bn_1/batchnorm/sub", "shape": [1, 1, 1, 512], "dtype": "float32"}, {"name": "StatefulPartitionedCall/dfew_classifier_1/resnet50_1/conv5_block1_3_conv_1/convolution/ReadVariableOp", "shape": [1, 1, 512, 2048], "dtype": "float32"}, {"name": "StatefulPartitionedCall/dfew_classifier_1/resnet50_1/conv5_block1_3_conv_1/Squeeze", "shape": [2048], "dtype": "float32"}, {"name": "StatefulPartitionedCall/dfew_classifier_1/resnet50_1/conv5_block1_3_bn_1/batchnorm/mul", "shape": [1, 1, 1, 2048], "dtype": "float32"}, {"name": "StatefulPartitionedCall/dfew_classifier_1/resnet50_1/conv5_block2_1_conv_1/convolution/ReadVariableOp", "shape": [1, 1, 2048, 512], "dtype": "float32"}, {"name": "StatefulPartitionedCall/dfew_classifier_1/resnet50_1/conv5_block2_1_conv_1/Squeeze", "shape": [512], "dtype": "float32"}, {"name": "StatefulPartitionedCall/dfew_classifier_1/resnet50_1/conv5_block2_1_bn_1/batchnorm/mul", "shape": [1, 1, 1, 512], "dtype": "float32"}, {"name": "StatefulPartitionedCall/dfew_classifier_1/resnet50_1/conv5_block2_1_bn_1/batchnorm/sub", "shape": [1, 1, 1, 512], "dtype": "float32"}, {"name": "StatefulPartitionedCall/dfew_classifier_1/resnet50_1/conv5_block2_2_conv_1/convolution/ReadVariableOp", "shape": [3, 3, 512, 512], "dtype": "float32"}, {"name": "StatefulPartitionedCall/dfew_classifier_1/resnet50_1/conv5_block2_2_conv_1/Squeeze", "shape": [512], "dtype": "float32"}, {"name": "StatefulPartitionedCall/dfew_classifier_1/resnet50_1/conv5_block2_2_bn_1/batchnorm/mul", "shape": [1, 1, 1, 512], "dtype": "float32"}, {"name": "StatefulPartitionedCall/dfew_classifier_1/resnet50_1/conv5_block2_2_bn_1/batchnorm/sub", "shape": [1, 1, 1, 512], "dtype": "float32"}, {"name": "StatefulPartitionedCall/dfew_classifier_1/resnet50_1/conv5_block2_3_conv_1/convolution/ReadVariableOp", "shape": [1, 1, 512, 2048], "dtype": "float32"}, {"name": "StatefulPartitionedCall/dfew_classifier_1/resnet50_1/conv5_block2_3_conv_1/Squeeze", "shape": [2048], "dtype": "float32"}, {"name": "StatefulPartitionedCall/dfew_classifier_1/resnet50_1/conv5_block2_3_bn_1/batchnorm/mul", "shape": [1, 1, 1, 2048], "dtype": "float32"}, {"name": "StatefulPartitionedCall/dfew_classifier_1/resnet50_1/conv5_block3_1_conv_1/convolution/ReadVariableOp", "shape": [1, 1, 2048, 512], "dtype": "float32"}, {"name": "StatefulPartitionedCall/dfew_classifier_1/resnet50_1/conv5_block3_1_conv_1/Squeeze", "shape": [512], "dtype": "float32"}, {"name": "StatefulPartitionedCall/dfew_classifier_1/resnet50_1/conv5_block3_1_bn_1/batchnorm/mul", "shape": [1, 1, 1, 512], "dtype": "float32"}, {"name": "StatefulPartitionedCall/dfew_classifier_1/resnet50_1/conv5_block3_1_bn_1/batchnorm/sub", "shape": [1, 1, 1, 512], "dtype": "float32"}, {"name": "StatefulPartitionedCall/dfew_classifier_1/resnet50_1/conv5_block3_2_conv_1/convolution/ReadVariableOp", "shape": [3, 3, 512, 512], "dtype": "float32"}, {"name": "StatefulPartitionedCall/dfew_classifier_1/resnet50_1/conv5_block3_2_conv_1/Squeeze", "shape": [512], "dtype": "float32"}, {"name": "StatefulPartitionedCall/dfew_classifier_1/resnet50_1/conv5_block3_2_bn_1/batchnorm/mul", "shape": [1, 1, 1, 512], "dtype": "float32"}, {"name": "StatefulPartitionedCall/dfew_classifier_1/resnet50_1/conv5_block3_2_bn_1/batchnorm/sub", "shape": [1, 1, 1, 512], "dtype": "float32"}, {"name": "StatefulPartitionedCall/dfew_classifier_1/resnet50_1/conv5_block3_3_conv_1/convolution/ReadVariableOp", "shape": [1, 1, 512, 2048], "dtype": "float32"}, {"name": "StatefulPartitionedCall/dfew_classifier_1/resnet50_1/conv5_block3_3_conv_1/Squeeze", "shape": [2048], "dtype": "float32"}, {"name": "StatefulPartitionedCall/dfew_classifier_1/resnet50_1/conv5_block3_3_bn_1/batchnorm/mul", "shape": [1, 1, 1, 2048], "dtype": "float32"}, {"name": "StatefulPartitionedCall/dfew_classifier_1/resnet50_1/avg_pool_1/Mean/reduction_indices", "shape": [2], "dtype": "int32"}, {"name": "StatefulPartitionedCall/dfew_classifier_1/strided_slice/stack", "shape": [1], "dtype": "int32"}, {"name": "StatefulPartitionedCall/dfew_classifier_1/strided_slice/stack_1", "shape": [1], "dtype": "int32"}, {"name": "StatefulPartitionedCall/dfew_classifier_1/strided_slice/stack_2", "shape": [1], "dtype": "int32"}, {"name": "StatefulPartitionedCall/dfew_classifier_1/Reshape_1/shape/1", "shape": [], "dtype": "int32"}, {"name": "StatefulPartitionedCall/dfew_classifier_1/Reshape_1/shape/2", "shape": [], "dtype": "int32"}, {"name": "StatefulPartitionedCall/dfew_classifier_1/frame_attention_1/sequential_1/dense_1/Cast/ReadVariableOp", "shape": [2048, 128], "dtype": "float32"}, {"name": "StatefulPartitionedCall/dfew_classifier_1/frame_attention_1/sequential_1/dense_1_2/Cast/ReadVariableOp", "shape": [128, 1], "dtype": "float32"}, {"name": "StatefulPartitionedCall/dfew_classifier_1/frame_attention_1/concat", "shape": [3], "dtype": "int32"}, {"name": "StatefulPartitionedCall/dfew_classifier_1/frame_attention_1/concat_1", "shape": [3], "dtype": "int32"}, {"name": "StatefulPartitionedCall/dfew_classifier_1/frame_attention_1/Sum/reduction_indices", "shape": [], "dtype": "int32"}, {"name": "StatefulPartitionedCall/dfew_classifier_1/fc_1/Cast/ReadVariableOp", "shape": [2048, 256], "dtype": "float32"}, {"name": "StatefulPartitionedCall/dfew_classifier_1/predictions_1/Cast/ReadVariableOp", "shape": [256, 8], "dtype": "float32"}]}]}